sr_weight/x3/FSRCNN-x3.pt (torch, 104233 bytes, 20 tensors)

feature_extract.weight f4 [56, 3, 5, 5]
00000000: d5ca 003f 704e a73e d415 5e3e 80d6 6e3e
00000010: d7c5 623e f407 e1bf 2f02 eabe bd9a 38bf
00000020: 1299 09bf 8ffe fcbf 84ab 273e 8e99 b63c
00000030: d36a b93e 5864 6e3e 6fd4 053f fb78 2e3f
00000040: 2b89 21bc 14c1 9f3e c3db 3e3c 281f d73d
00000050: 8845 99bf 599c 2a3e 9f6a a8be 1fd6 e7be
00000060: 7a2b 6bbf ade5 003e 6818 57bd 158e 9d3e
00000070: 50d9 afbd 6a29 b73d e8a4 863d f119 933e
00000080: 31f5 0c3f 4f12 15be b10e e33d 47c2 32be
00000090: aee8 c4be 94dd a4bd ee28 913d 71c0 20be
000000a0: 9692 6d3d 3cd9 a8bd e754 3c3d 5c60 6ebb
000000b0: 44e3 bebc f721 823e 8467 963e 0fe6 7b3e
000000c0: fc04 8a3e 5031 a1bd 4e3a 35bd b3e6 2a3e
000000d0: ba9e cdbe 6d8f 18be 7bc3 e83b 304b 29be
000000e0: 721a 803e 56bc 9a3e 269d b93e ca98 123f
000000f0: fc7f abbe 59eb eebe 62df fabd 7fe8 c7be
00000100: 1fb6 11bf 52a0 c3be 4285 95be 83a6 9abe
00000110: 03e1 86be 2b37 7ebe acfd 613e d383 163e
00000120: 2880 db3e 0a1f ab3e c3e8 dd3e 2544 953c
00000130: a4bf 65be 74a4 e03d c456 513d 2e73 82be
00000140: 47f3 b2be 5121 28bd 73b3 91be 19e4 0abe
00000150: 9430 2f3e 9e2a e8bc 2ae5 dfbe 8e8c d2bd
00000160: f89a 01bf e067 f83d 847d b93e 62ae c33b
00000170: e99e 413d 9e28 16bd 7682 b33d e79e ccbd
00000180: 7275 9dbe e462 ed3c 5cd8 b23d e775 11be
00000190: c51e eeb8 f327 503e e091 c6bc dc86 bc3d
000001a0: 115d a73d 17a4 313e 448b df3d a9d8 9dbd
000001b0: ea39 b2bd 29a8 49be 5af9 bc3d 8807 e1bc
000001c0: 1028 e3bc eadd 903d bc19 b5bd 4a05 873e
000001d0: 8537 2ebe 3f4b 28bd 3b17 083e 9883 4b3e
000001e0: cc36 013e 1336 f9bd 3240 863c bbea b03d
000001f0: 4c46 2d3d 3b42 48be ac51 1c3e 12f7 3f3e
00000200: 8534 a0bc e804 183d cf2d c7be 723d cbbd
00000210: 744a 9e3c 6bc1 8c3d 4da6 0d3e 60e8 53bc
00000220: 29ed 1ebe aa69 62be 9b39 513c f3c8 0abe
00000230: 02e2 053e 693a eebb 5b39 acbe 461a 313d
00000240: 1084 f9be 420c b9bd 7f61 1c3e a3fc 123e
00000250: 3a5a 5abe e919 803d d042 bc3d 51b0 d8bd
00000260: c475 b83c 0c04 07bd b759 bd3d 2860 ac3d
00000270: 9849 2fbe efc6 8ebd 2503 b53c 8762 dbbc
00000280: 495d c43b 972a 013e 8bb8 7cc0 1f7a 813d
00000290: 2214 0a3e 1536 74bd 768e f1bd 7a13 f93d
000002a0: 48e9 1dbe 78e0 62bb 542f 263e ee8a d8bd
000002b0: 4df9 ffbc decc bf3d 0fe1 ddbc af29 e53d
000002c0: fb49 2abc 02ca 27be b430 2bbd 19a0 563e
000002d0: 7ff4 f83d 99e9 4e3d 9174 78bd 33aa 82be
000002e0: af4c 283c 35c6 f5be e301 c7bd 673c 8e3f
000002f0: c5d1 3abe 497d bbbd 931a 623e 5c0a 8cbd
00000300: c3fd b13d 232a 7f3e 3d6e 5b3c e932 2a3e
00000310: 20de 123d a1d1 2bbe 2d7b f9bd 6527 343e
00000320: 9703 0ebe d5e4 103e d1b8 9d3c f12e 1e3e
00000330: a960 85be 5fae 24be fe64 85bd bcac 7b3e
00000340: 73ce 353e a580 3d3d a9e3 7d3e 72a8 35bd
00000350: 9548 36be 1b2d eb3d c405 d23b 781d b9bd
00000360: e96d 9a3e 50c7 92be 8181 8abe 3169 10be
00000370: 35d0 24be cd35 03bd 93d0 823e d712 9cbc
00000380: 54e9 d6bd 94bd 05be 8f77 663d 18b3 89bc
00000390: 7125 68be c1d9 583e 07f7 463d 545d 663e
000003a0: 653f 42bd b074 c0be 7277 443e 1212 c53d
000003b0: d682 d53e 5d73 97bf 9bcd 90be 7ff0 473e
000003c0: 3709 09bd 6ec7 e8be 8072 62bf e3ea 8c3f
000003d0: c21b 2e3e f894 7f3d b32e 12be a4b8 d33e
000003e0: da8f ac3e 19d2 8cbe 89e1 543e 5a5f 303c
000003f0: d382 8ebe 285a 803e bc65 24be 2fda 4cbd
0.503095 0.3267703 0.21688014 0.23324013 0.22145782 -1.7580552 -0.4570479 -0.7211111
-0.5374919 -1.9765185 0.16374022 0.022290017 0.36214313 0.23280466 0.5227727 0.6815335
-0.009859364 0.31201994 0.011649075 0.105039895 -1.1974344 0.16661204 -0.32893845 -0.4528055
-0.91863215 0.12587614 -0.05251351 0.30772462 -0.08586371 0.08943446 0.06574422 0.2873073
0.5506163 -0.14557765 0.110867865 -0.17456923 -0.3845877 -0.08050075 0.07087885 -0.1569841
0.058001123 -0.08244559 0.045979407 -0.0036373353 -0.023301728 0.25416538 0.2937585 0.24599479
0.26956928 -0.07870734 -0.044245057 0.16689567 -0.4016016 -0.14898463 0.007103381 -0.16532588
0.25020176 0.30221814 0.36252707 0.5726439 -0.33496082 -0.4666393 -0.12249638 -0.39044568
-0.5691852 -0.38208252 -0.2920323 -0.30205163 -0.26343545 -0.24825732 0.22069424 0.14698724
0.42871213 0.33422118 0.43341646 0.01822097 -0.22436386 0.10968867 0.051108137 -0.254785
-0.3495123 -0.041047398 -0.2845722 -0.13563575 0.17108375 -0.028340634 -0.43729526 -0.10280715
-0.5062709 0.121291876 0.36228573 0.005971716 0.04727069 -0.03665983 0.08765118 -0.09991246
-0.30753666 0.028977819 0.087326735 -0.14205132 -0.00011354456 0.2032774 -0.02423948 0.0920541
0.08172048 0.17347752 0.10915235 -0.0770734 -0.087024525 -0.19693054 0.092272475 -0.027469411
-0.027729064 0.07073577 -0.08842799 0.26371223 -0.17013367 -0.041087385 0.13290112 0.19874418
0.1261856 -0.12168517 0.016388033 0.08638521 0.04230337 -0.19556515 0.1526553 0.18746594
-0.019556293 0.037114054 -0.38902137 -0.09923829 0.019322611 0.06872829 0.1383297 -0.0129338205
-0.15520157 -0.2211062 0.012770082 -0.13553219 0.13074496 -0.0072701466 -0.3363751 0.043237947
-0.48733568 -0.09035541 0.15271567 0.14354186 -0.21323481 0.06254942 0.09192431 -0.10580505
0.022517093 -0.032962844 0.092456274 0.08416778 -0.17117918 -0.06971537 0.022096226 -0.02678038
0.005992566 0.12613903 -3.9487636 0.06322121 0.13484243 -0.05962189 -0.117947504 0.12161918
-0.15421021 -0.0034618657 0.16228992 -0.10573374 -0.031246806 0.09365247 -0.027084855 0.11189591
-0.010393615 -0.16385654 -0.041794494 0.2095951 0.12156009 0.050515745 -0.06065804 -0.25520477
0.010272189 -0.48002782 -0.09717157 1.1112183 -0.18244083 -0.091547556 0.2208045 -0.068379134
0.08690979 0.24918418 0.013392982 0.16620983 0.035856366 -0.16779186 -0.12181697 0.17593153
-0.13868557 0.14149792 0.019253166 0.15447594 -0.26050308 -0.16082142 -0.06513403 0.24577612
0.17754535 0.046265263 0.24793877 -0.044350095 -0.17801125 0.114832126 0.0064093787 -0.09038824
0.3016198 -0.28667688 -0.2705193 -0.14102627 -0.1609505 -0.03203373 0.25549755 -0.019051952
-0.104937226 -0.130606 0.056266364 -0.016809031 -0.22670533 0.21176817 0.048575427 0.2249654
-0.04742374 -0.37589025 0.1918619 0.09622587 0.41701382 -1.1832081 -0.28281865 0.19525336
-0.033456054 -0.45464653 -0.88455963 1.1009182 0.17002776 0.062397927 -0.14275627 0.41351807
0.337035 -0.27504042 0.2078916 0.010764921 -0.27834186 0.25068784 -0.16054434 -0.050012764

feature_extract.bias f4 [56]
00000000: 7d19 dcbe c541 33bc 50d6 893e 5832 5c3e
00000010: 19e7 22be 939c 043d 5b15 9dbe 688c 32be
00000020: 1be8 bb3d 0dc3 c9bd 1bac 2e3e b690 febd
00000030: 70ab 853e ac20 2b3b 191b 8bbe 08a2 a7be
00000040: a99a c9be d5fb 043e a0ee 203e c266 50be
00000050: e1db 07be 8e27 40be f59d 823d b162 a4be
00000060: 4689 17be c63c 38bc ce1c a0be da8e 1e3e
00000070: 9def 483e 5643 3a3e 5e97 3cbe ae66 913d
00000080: 0c7f a7be b0d9 0fbd 1a34 a83e 2174 03be
00000090: 5f76 2cbd 3e5e 98be f19b 55be a120 97be
000000a0: 1d0a c73d a240 a3be 8d4a f9bd c8b7 28be
000000b0: f6aa 09be a1aa b7be f073 e8be 8cbf 6ebe
000000c0: da8f 62be 3da3 95bc f60d 92be 5b59 a73e
000000d0: dea5 aebe 64a9 3bbd 18ac 1dbe 8145 d83c
-0.42988196 -0.010940974 0.2692132 0.2150358 -0.1590847 0.032375883 -0.30680355 -0.17436373
0.0917513 -0.09851656 0.1705784 -0.12429945 0.2610736 0.0026112003 -0.2716911 -0.32740808
-0.3937581 0.12986691 0.15716028 -0.20351699 -0.13267471 -0.18765089 0.06377784 -0.32106546
-0.1479846 -0.011244958 -0.31271976 0.15484181 0.19622655 0.18189749 -0.18417117 0.07099663
-0.32714117 -0.035119712 0.3285225 -0.12837268 -0.042105075 -0.297594 -0.20860268 -0.2951708
0.09718726 -0.31885248 -0.121724226 -0.16476357 -0.13444123 -0.35872367 -0.45400953 -0.23315257
-0.22125188 -0.018266315 -0.28526276 0.3268536 -0.34110922 -0.04581584 -0.1539768 0.02640033

activation_1.weight f4 [56]
00000000: f299 1a3b 06a5 993d 97bc 4bbb 0a42 4cbd
00000010: d7d0 793a ff94 24bf 6f2e 2f3f 6630 373b
00000020: e301 0bbf 013b aebc cfac 26be c6cb 313c
00000030: 8fcb 0bbf 6dce 2240 7556 7b3f d1ec c7bc
00000040: dc2e 7c3f b784 803f e20d 883f 83a1 803f
00000050: 0e76 f23f 75d9 7e3f d501 243d 59c8 09be
00000060: a3fd fcbb dab2 733f d208 bbbd 850b 6f3e
00000070: 2e38 eabe 14b1 943f 7bd0 0bbe fce2 643f
00000080: 91a0 7f3f f5a8 52ba d395 7e3f 5928 703f
00000090: b37a c53d 7a48 633f 2333 5cbc 79b5 3dbd
000000a0: e091 673f bbb0 823f 9e04 adbe c5e8 7e3f
000000b0: 0345 6b3f 5b6c 813f 94fc 953b 6056 b0bd
000000c0: 5f99 813f d10c 40be f6c8 7f3f 62e3 7f3f
000000d0: 5048 0bbb 3c28 813f 50f5 693e 8271 7f3e
0.0023590294 0.07502179 -0.003108775 -0.049867667 0.0009529716 -0.6428985 0.6843023 0.0027952432
-0.54299754 -0.02126837 -0.16276859 0.010851806 -0.5460748 2.5438492 0.981788 -0.024404915
0.98509 1.0040501 1.0629237 1.004929 1.8942277 0.99550563 0.04004081 -0.13455333
-0.0077206655 0.9519478 -0.09132542 0.23344238 -0.45745987 1.161654 -0.13653748 0.8940885
0.9985438 -0.0008036041 0.99447364 0.93811566 0.09642544 0.88782465 -0.013439926 -0.046315644
0.9045696 1.0210184 -0.33792585 0.9957393 0.9190218 1.0111192 0.004577229 -0.08610225
1.012493 -0.18754889 0.9991602 0.99956334 -0.0021252818 1.0090404 0.22847486 0.24945644

shrink.weight f4 [12, 56, 1, 1]
00000000: ce1b aebe 8cd9 a23e f990 773e 1cef 953e
00000010: 90c3 8ebd c68d f23b cf7c abbd b1b9 d7be
00000020: 805d 33bd 48fa f7bd f2b8 51be 6919 c73c
00000030: 3c46 a53b 1369 8cbc 8abc ed3d f3f4 cbbd
00000040: 188f 9b3d cb3c d43d d71b fcbc 72d9 a5bd
00000050: 3a79 0b3d 64d5 20be 30ea 32be 036f 243e
00000060: 6da3 5fbf ad2e a63d 7c7b 20bc 28dd 423d
00000070: 4558 413e d3ac b43c fa3d 9cbc be98 62bd
00000080: a418 803d fbfe 2c3f 7b65 99bd 4bcd 593d
00000090: 9aa0 c63c 20d3 01bd dc14 363d d335 a9bc
000000a0: 5bc4 6dbd b55e aabd f34e 97bd 887a acbd
000000b0: 1923 a73d 7c90 403c 0b2a 02bf faef 9c3e
000000c0: 7f14 35bd fc23 d73b 8a53 523e cbee fdbd
000000d0: 8cc3 e7bd deed bfbd e9e7 9abd 1566 acbd
000000e0: b42d f1be a9e1 d63b b6c5 36be bf9b 223d
000000f0: f4d0 66be d6b7 d5bb 4c14 9cbd 16c1 983e
00000100: 867a c8bc 1d7a 49bd c8cb 97bc c1ab e9bd
00000110: ce43 a5bd 3aa0 f33d 2bbb 953d 3c5a 67bd
00000120: f893 c83d 860d 48be fb6d 153d 314f 86bc
00000130: 9b67 be3d f48c c83b 5c72 41be 065e f1bd
00000140: bea9 133e 3b89 b93d 6263 37be 75d5 4fbe
00000150: 8482 83bc f2e9 66bd 7c96 983d 2623 bb3d
00000160: bc37 62be 8211 a83d 5baa bfbe 6ab3 0fbc
00000170: daaa 83be 74b6 e4be 58d0 28be fde6 ab3c
00000180: 5178 88bb fd01 2abd 22c5 3ebe 9d40 223e
00000190: 3da7 ecbd bad8 013d 6d90 d23e 978f 3b3c
000001a0: 3e4a 92bd bc1b 353b d910 c0bd 93f1 e5bd
000001b0: b186 40be b7fc 2e3d ea87 6b3d 02c2 a1bd
000001c0: e0a1 b13e 3b56 23bf 01eb 5d3c bfdb 51be
000001d0: a46e 3b3f 26d2 cb3e 195e 74bb 5c45 083e
000001e0: 2fd2 c3be 9129 e13d 1b62 cfbe 24c9 f5bd
000001f0: fb57 a5be a415 393b 6d7f 96be feed ab3e
00000200: 18e4 9c3e c613 98bd 48c1 c1bc 8186 9bbe
00000210: 7287 e5bc e1ef adbd a615 53be 9626 a03e
00000220: 11a7 b23d 8fa8 58bc fda1 8abe 5527 10bd
00000230: 56c9 8abc 5faa 5dbd de0d 7a3e 3ee1 faba
00000240: c73b d83d 6907 a9bd 5105 083e 01ec 7abe
00000250: 8492 25be c636 ef3c 9609 15bf dea6 26bf
00000260: 8841 a5bc c81b 203e 31d5 88be 8ba1 563e
00000270: 8589 9c3d fec0 993e 0f41 443d f838 ea3e
00000280: 2f2a 04bd 7c73 a3be 92a8 dfbd 870a 4c3c
00000290: 1dbe 7a3f 6ea9 833c 6e56 9abc 98f4 d0be
000002a0: e6bc a5be cbb8 203f 4392 893e 210c 4b3e
000002b0: a76a 4ebe 0a78 59bc 2e49 ca3d ee8f c6be
000002c0: 7ed5 b8bc dd22 dfbd 319f 263d b7f0 5ebd
000002d0: accf b5bd 6560 bdbd 950a b93d 459a 89bc
000002e0: 0289 08bd c38d c1bd 55a3 9abc 38fc f03d
000002f0: 3e8b 1fbd 1944 6c3e a70e a7be d8e6 3cbd
00000300: abfd 8ebf ea33 3b3c 70a1 debd 438a 1f3e
00000310: 7c0a 8e3d 2041 723d 8d6d f53c 5a52 e7bc
00000320: 66d7 2bbd 7d72 d13e fb45 6e3e 51d1 af3d
00000330: f0a7 723e 6408 043e 2a12 c73d fcde 26bc
00000340: 685e efbc 646f 10be 7dea febd 38ae 37bc
00000350: 1cc0 523d 30d2 aebd 4f48 11be 22bb 343e
00000360: 44a7 54bc 8cec eb3c 5f3b 9bbd 6f0a 093d
00000370: 88b4 42be 69bb 583c 3d2f b73c 741b e13d
00000380: 20e4 0c3f 5fba 743d 270f fb3d 55c7 8abd
00000390: a968 cbbc 01bc d53c 0ee4 b13d 9fda f7be
000003a0: 557b 1fbd d071 673c eccd 60bd 6962 96bc
000003b0: f586 3abd 501b 00be 3e56 a53c 2dae 0b3e
000003c0: b8d4 05be 5694 413d c56e 043e b7bd 7fbc
000003d0: 4f4c 2ebd 8ca7 953d f440 4d3e 49f7 37be
000003e0: 71a1 00bf 0f90 bdbd dc66 cf3d ef90 8d3e
000003f0: 71b4 4fbd 4029 d83d 7743 c2be 172a 23be
-0.34005588 0.318066 0.24176396 0.29283988 -0.06970894 0.0074021546 -0.08373415 -0.4213386
-0.04379034 -0.12108284 -0.20480707 0.024304109 0.005043773 -0.017139947 0.116082266 -0.0995883
0.07595652 0.10363158 -0.030774994 -0.08098115 0.034051158 -0.15706402 -0.17472148 0.16057973
-0.8735874 0.081143714 -0.009795066 0.047574192 0.18881328 0.022055065 -0.019072521 -0.055321448
0.062547 0.6757657 -0.07490059 0.0531743 0.024246503 -0.031695485 0.044453487 -0.020655548
-0.058048587 -0.08318845 -0.07388105 -0.084218085 0.08160991 0.011753198 -0.508454 0.30651838
-0.044209 0.006565569 0.2053968 -0.12399062 -0.113165945 -0.093715414 -0.075637646 -0.08417908
-0.4710518 0.0065576625 -0.17848858 0.039699312 -0.22540647 -0.006522159 -0.07621059 0.29834813
-0.024472486 -0.049188722 -0.018529788 -0.114097126 -0.08069573 0.11895795 0.0731109 -0.05648254
0.09793848 -0.19536409 0.03648184 -0.016395183 0.09297105 0.0061203185 -0.18891281 -0.11785512
0.1442022 0.09059378 -0.17909005 -0.20296271 -0.016053446 -0.05637545 0.074505776 0.091375634
-0.22091573 0.08206464 -0.37434658 -0.008770803 -0.25716287 -0.4467045 -0.16485727 0.020984167
-0.0041647335 -0.041505802 -0.18629888 0.1584496 -0.11555336 0.031700827 0.41125813 0.011447809
-0.07143067 0.002763494 -0.093782134 -0.11227717 -0.1880138 0.042721476 0.057502665 -0.07898332
0.34693813 -0.6380345 0.013544799 -0.20493983 0.732157 0.39808768 -0.0037287532 0.13307709
-0.38246295 0.10994256 -0.40504536 -0.12001255 -0.32293686 0.0028241659 -0.29394093 0.3358001
0.30642772 -0.074256465 -0.023651734 -0.30376056 -0.028018687 -0.08493019 -0.20613727 0.3127944
0.08723272 -0.013223781 -0.27076712 -0.03519376 -0.016941708 -0.054117557 0.24419352 -0.0019140614
0.105582766 -0.082533665 0.13283278 -0.24504091 -0.16169173 0.029200923 -0.5821775 -0.6509837
-0.02017285 0.15635598 -0.26725152 0.20960061 0.07643417 0.30030054 0.047913607 0.4574659
-0.032266792 -0.31924045 -0.10920824 0.012453682 0.9794634 0.016072001 -0.018840041 -0.4081161
-0.3237068 0.6278197 0.268694 0.19828846 -0.20157872 -0.013273248 0.09877239 -0.38781685
-0.022562739 -0.108953215 0.04067916 -0.054428782 -0.08877501 -0.092469014 0.090352215 -0.016797194
-0.033333786 -0.09450867 -0.01887671 0.11766857 -0.03895115 0.23072852 -0.32628366 -0.046118587
-1.1171163 0.0114259515 -0.108706355 0.15580086 0.069355935 0.05914414 0.029959464 -0.02823751
-0.041953467 0.4090766 0.23268883 0.08584846 0.23696876 0.12893826 0.097202614 -0.010185
-0.029219821 -0.14104992 -0.12447069 -0.011210971 0.05145274 -0.08536184 -0.1418774 0.1764951
-0.012979332 0.028799318 -0.075796835 0.033457216 -0.1901418 0.013228276 0.022361392 0.109915644
0.5503559 0.05974805 0.122587495 -0.06776301 -0.02483018 0.026090624 0.08686076 -0.48408982
-0.038935978 0.014126256 -0.054883882 -0.018357472 -0.04553886 -0.12510419 0.020182725 0.13640662
-0.13069427 0.047260605 0.1293288 -0.015609196 -0.042553242 0.07307348 0.20044309 -0.17965426
-0.5024634 -0.092559926 0.10127041 0.27649638 -0.05070919 0.10554743 -0.37942097 -0.15934025

shrink.bias f4 [12]
00000000: 21af d4bd a794 023e bab9 463d b6fa 46bd
00000010: e16d 6b3e 839f e23d 2c04 d33d 2570 a7bd
00000020: da48 5cbd 4563 1bbd 1017 49be 5967 2fbe
-0.10384966 0.12752019 0.048516966 -0.04857894 0.22991134 0.11065581 0.1030353 -0.08175687
-0.053780414 -0.037936468 -0.19637704 -0.17129268

activation_2.weight f4 [12]
00000000: 6d1d 743f dc4f 2a3e 1efa 01bd 2658 6d3f
00000010: 1100 253e 480b 073e 9c2e 363e 615a 7d3f
00000020: e600 7c3f b1c7 7f3f 3fd2 803f 4ebc 813f
0.953574 0.16632026 -0.03173267 0.9271263 0.16113307 0.13187897 0.17791218 0.9896603
0.9843887 0.9991408 1.0064162 1.0135591

map_1.weight f4 [12, 12, 3, 3]
00000000: 7fed 483d dd8d 5abe e35a f9bd bbd0 edbd
00000010: d051 a03e 9c0a 0dbe a149 b8bd 4ff2 e6bd
00000020: d19e 693d 00e3 cb3d af11 a43e 09e9 0ebd
00000030: 7d7c a83d 1d92 993d 7a39 aa3d e25f 99be
00000040: 67c8 3a3e 576d 213b fd76 643c adbc debd
00000050: e892 ef39 7a21 28bc 0f1d 363c 683d 86bd
00000060: bbaf c73c 11f6 61bd c798 b23c 2116 a83d
00000070: 071f dabd ad2d 933d c4af 583e 2a89 a13e
00000080: c27e 193e 3665 72bd 65da ab3c ec4c 30be
00000090: 3f0e 0b3e e372 5ebe 9ad9 52be 7bf0 313e
000000a0: 3620 9ebd 2f7e 28be 3215 683e fbd1 773e
000000b0: f2d3 c13c d601 6cbe ab03 2a3d cf3e 1b3e
000000c0: 323d 933e 4903 0bbe b43f 99bd f3b9 40bd
000000d0: 784d 58be 36f3 433e 6b96 513e 7cf6 b13e
000000e0: 8432 533e 09f4 8c3e ebee 08bf f8ff 9bbc
000000f0: 0167 0f3e 4b9f f4be a377 edbc a6bb 013d
00000100: baa2 0d3e 63a7 3cbd 1232 873e 51c5 8abe
00000110: 7dcd 073e 13bb aebd e3dc f53c b224 043c
00000120: 6f19 77bd 3563 8e3b 6411 ca3d f1a7 523e
00000130: 98a4 92be 8556 973d 29fe b33b d056 7ebc
00000140: 5da9 783c 7534 b53b 344f e63d dcd7 a43b
00000150: f830 f03c 6738 89be efb7 6d3d 60ed 9b3c
00000160: 78fe 66bd 0dde b83d 8cad 2b3d 8160 e7bc
00000170: 9da5 5d3d 1146 45be 391f de3d 3fb0 3fbc
00000180: 1aa2 693c 7373 6c3d 46ea 4abd b6a6 b23d
00000190: 66a9 f9bd ce83 533d f91e 3b3d 2cc5 573e
000001a0: 0095 f8bd b4b5 303d 9c51 08bc f1dc c93c
000001b0: 10e2 823d 2d8e 273d 442d 2d3d 0585 00be
000001c0: feed d1bd 38d3 733d 7ae8 09bc 1e61 20bd
000001d0: 9e5c 85bc 8119 3b3a b107 80bd 56d2 c0bd
000001e0: 99e7 cb3d 2d09 01bd 3c36 5abd def2 ea3d
000001f0: d96a 373e baca 8dbd 6c3b cc3c 2c13 6b3d
00000200: 87d0 7c3c 30f5 aa3d adf5 893d 13d1 8e3c
00000210: 9491 503d 50e2 f53d 600c 883d 8604 70bd
00000220: 74a0 3a3e 5581 7fbd 5767 cf3d 9cda 02be
00000230: 895d 95bd aeb6 5bbc 561d 3abd a110 3dbc
00000240: 121d 10be 952d 7a3d 19ae 0fba d3e1 c73d
00000250: 30ca bf3d 289e 663c 4ae7 a7bd 3dad 4bbe
00000260: 14ac 92bc aa0c 843d 4176 453e 81dd 093d
00000270: 5127 5d3e a541 7cbd d757 44be 4b24 b83d
00000280: c112 3ebe c69b b3bd 922d 89bc b2ce 043e
00000290: 73f2 81bd 5963 f23d aa48 68be 677e 6dbe
000002a0: 4bf0 9a3d 933e e9bb 1edc 0ebe c0ef 523d
000002b0: 8202 83bc 2b4b b2bb 8138 473d a3bf 27be
000002c0: b170 473e 0b5c 97bd 84c2 0e3c d476 0f3e
000002d0: 3a0b 0bbb 657d 393e a89c 39bc 86a5 83bd
000002e0: 6eac ffbd 9eed 903d d0d0 98bc 6022 3cbd
000002f0: 3745 b03d b955 223d 9592 1fbe 1168 d3bc
00000300: eb72 14be b7e0 123f 1e55 fbbd b43a 923c
00000310: aec6 86bd d416 fcbc 194b 8a3c ad05 eb3c
00000320: a244 733d 93b4 cebb 8ddd 673d d3f3 f43c
00000330: 1809 893d a621 18bb a497 6cbc 4633 58bd
00000340: fdc7 883d 05a0 dfbd a485 e5bd 7bbf eabe
00000350: a683 193d e531 653d b1ed 9ebc 35d7 7fbd
00000360: 3d54 85bc 95ca 0bbe 5d33 6cbc a512 b83d
00000370: 2b84 973e 8d7c 10bd 80b1 ccbd a908 c0bb
00000380: c7f0 edbc a94e bb3d 644c 5dbe 23d8 523d
00000390: 7531 8dbe fe3d 7dbd 1849 a1be 82b4 5dbd
000003a0: 15d7 9cbe c6d3 3d3b 7a4b ca3a 4527 ecbd
000003b0: 2dc6 22bd e412 f1bc d2ba 12be 4549 e33b
000003c0: e3ba a1bc 0720 36be dc2f 22ba 8624 193d
000003d0: bb62 c9bd a9f8 663c 55d3 96bd c0c1 7bbe
000003e0: 8a51 9c3d 6571 57bd 6116 3a3e b1ce 09bd
000003f0: 8de4 c73d 44e9 a3bc 973d cf3c bdcd ae3d
0.04905462 -0.21343179 -0.121755384 -0.11612078 0.31312418 -0.13773578 -0.089984186 -0.112766854
0.057036225 0.09955406 0.32044742 -0.03489021 0.08226869 0.07498572 0.08311744 -0.29955965
0.1824051 0.0024631822 0.013944385 -0.10875831 0.00045695086 -0.010261888 0.011115327 -0.06554681
0.024375787 -0.055166308 0.021801366 0.08207346 -0.10650449 0.07186446 0.211608 0.3154996
0.1498976 -0.059178554 0.020978162 -0.17216843 0.13579653 -0.21723513 -0.20590821 0.17376892
-0.077209875 -0.16454385 0.22664335 0.24201195 0.023660634 -0.23047575 0.041507404 0.15160678
0.28757626 -0.13575472 -0.074828535 -0.047052335 -0.21123302 0.19135746 0.20467536 0.34758365
0.20624739 0.27529934 -0.5348956 -0.019042954 0.14004137 -0.4777778 -0.028987711 0.031673096
0.13831607 -0.04605807 0.26405388 -0.27103665 0.13261981 -0.08531775 0.030012554 0.0080653895
-0.06032699 0.0043453225 0.09866598 0.20571877 -0.286412 0.07389549 0.0054929447 -0.015523627
0.015177098 0.005529935 0.112455755 0.0050306153 0.029320225 -0.26800844 0.05803674 0.019034088
-0.056395024 0.09026728 0.041913554 -0.028244259 0.05411302 -0.1926501 0.10845799 -0.011699735
0.014259839 0.05772729 -0.049539827 0.08723204 -0.12190513 0.05163937 0.045683835 0.21071309
-0.121377945 0.043142036 -0.008320238 0.024641486 0.06390774 0.040907074 0.042279497 -0.12550743
-0.102504715 0.059527606 -0.008417243 -0.03915512 -0.016279515 0.0007137284 -0.06251467 -0.094151184
0.09956283 -0.03150289 -0.05327438 0.114721045 0.17911853 -0.06923433 0.024930678 0.05739133
0.015430576 0.08347547 0.06736312 0.017433679 0.050920084 0.12006056 0.06642985 -0.058598064
0.1822527 -0.0623792 0.101271324 -0.12778705 -0.07293231 -0.013410253 -0.045438133 -0.011539609
-0.1407359 0.061078627 -0.00054809597 0.097598694 0.09364736 0.014075793 -0.08198412 -0.19890304
-0.017904319 0.06447728 0.19283392 0.03365851 0.2159703 -0.06158604 -0.19174133 0.08991297
-0.18561842 -0.08769946 -0.016745362 0.12969473 -0.06345072 0.11835355 -0.22683969 -0.2319275
0.075653635 -0.007118055 -0.13951156 0.051498175 -0.015992407 -0.0054410896 0.04863787 -0.16381697
0.19476582 -0.07390603 0.008713368 0.14010173 -0.0021216408 0.1811424 -0.011328854 -0.064280555
-0.1248406 0.07076572 -0.018654257 -0.04593122 0.08606952 0.039632533 -0.1558326 -0.025806459
-0.14496963 0.5737414 -0.12272094 0.017850257 -0.06580864 -0.030772604 0.016881512 0.02868923
0.059391625 -0.006308147 0.05660777 0.02990142 0.066911876 -0.0023213415 -0.014440451 -0.052783273
0.0667877 -0.10919193 -0.112071306 -0.45849213 0.037479065 0.055955786 -0.01940045 -0.062461097
-0.01627552 -0.13651498 -0.014416543 0.08987931 0.29593024 -0.03527503 -0.09994793 -0.0058604074
-0.029045476 0.091458626 -0.21611172 0.051475655 -0.27576795 -0.0618267 -0.3150108 -0.054127224
-0.30632845 0.0028965338 0.0015433871 -0.115309276 -0.039739776 -0.029427953 -0.14329079 0.0069362246
-0.019742435 -0.17785655 -0.0006186941 0.037388347 -0.098332845 0.014097371 -0.07364527 -0.24585629
0.0763274 -0.052598376 0.181726 -0.033644382 0.097603895 -0.02000869 0.025297923 0.08535335

map_1.bias f4 [12]
00000000: a43a 8a3d 71e3 55bd c346 0e3e cc8d 973c
00000010: 8ece 0c3d fbb6 6abd 0580 133e abe2 4f3e
00000020: 44a8 0e3e b03b f7ba 1a8f 82bc 765d 693e
0.06749466 -0.05221886 0.13894181 0.018500231 0.034376673 -0.05730341 0.14404304 0.2030131
0.13931376 -0.0018862393 -0.015937377 0.22789559

map_2.weight f4 [12, 12, 3, 3]
00000000: 4469 90be d4b5 6b3b 0dd0 f5bd 65b9 a83d
00000010: 48db 4e3e 1111 b1bd c96f b83d fdfa 6c3d
00000020: 92fc 76be 3ee6 aabe 6d06 8abd 497b 3e3b
00000030: 40ee b13d ce98 043e a1f5 abbd 4fb0 013d
00000040: ed5c e5bc 258b acbb cacc 92bd cd48 a5bd
00000050: 2e4d 963d 7e05 5b3d bd60 953e 936f 07be
00000060: 6a5b 72bb 2d61 2e3c c57f e5bd 1be4 1a3d
00000070: c7bd 163d 9a99 a63d ebfb f2bd a62e 6d3a
00000080: 7bb9 afbd 35df 203e 3a6f 59bd f445 88bd
00000090: 54df 03bc 9cea dd3c a9c8 d7bd 7c29 01be
000000a0: 610c 793c b043 f83c d217 443d 0197 54bd
000000b0: 9c4c c3bc 21f6 45be d0d0 223c f367 9d3d
000000c0: add0 793e 99ec 7abe 871d f6bd 21b2 ee3d
000000d0: 8e53 97be cc6c 733d 2063 14bd de87 9d3d
000000e0: de90 403c 3a5c c33d d5fd 783e b29d 23be
000000f0: 6a27 de3d d179 5abe ec6b e5bc 6cb7 953d
00000100: 168f 983d 8fc0 113d 86b5 2c3e 3951 8d3e
00000110: 52c3 07bd 254d 1abe 0cf6 e7bc 5734 8cbe
00000120: f444 35be d8fd d3bd 6b8c dc3a 63fc 08be
00000130: 25d0 be3c 4e0f 823d 567a 593e 6311 0fbd
00000140: 0748 da3c d218 b03c 796b 15be 4f02 3cbe
00000150: 8b3b 3c3e 8d53 46be 51ef 14bc 62f8 b0bd
00000160: d215 703e c03d 683e d891 703e eb1d 063d
00000170: 84b5 7cbd 6368 ffbc 08d6 a13e d932 3cbd
00000180: 9c98 b1bc 14fe 173e 2779 97bd 7700 823e
00000190: b682 80bd 1cd2 24bd e199 05be af90 07be
000001a0: 9203 78bd e6d5 a9bc f33e e43d 9c2f 293e
000001b0: 8f0b 71bb 539f 99bd 7e3b ecbd abf5 963d
000001c0: 0a44 9b3c bab5 91bb 53ab 1abc bc94 5b3c
000001d0: dd50 03be e64b b5bd 3bdb a1bc 22eb 0c3d
000001e0: 27bd 82bc 9d44 bcbd 36ec 3d3e 30cb 893d
000001f0: fdb7 a83d 6226 86be a71e f43c e2b5 d2bc
00000200: 1a12 613d cefe 52be d320 363e f94e 5abd
00000210: ce70 663e d14d dbbd 1ad6 bbbd a456 b9bc
00000220: 4886 453e 7d78 8f3d 2ec9 a33d a876 3d3f
00000230: 9d8e d6be 5315 16be d619 7abe f215 aabd
00000240: f06f 2a3d 35af 483d 0cac d23c d63f db3e
00000250: 8f95 83be 26cc 35be 6cc6 dd3c 4b34 88bd
00000260: 7b3b d33c a99c b3bd 4c08 833d 4656 ddbd
00000270: 9b73 373e 2a66 19be 47ea d33d 9cdc 6f3e
00000280: 9f25 dcbd 487a 2e3d 6bc6 8d3d 71a1 40bd
00000290: 94eb 00bd 4501 6fbe 6f97 c13d a3d4 d03d
000002a0: 13ad 063e 1c79 1abe 785c 023e 2e5c b23d
000002b0: e34d c03d 4a25 eabc ca18 a5bd 4ee5 0dbd
000002c0: f512 b43d 75c2 48bd 6ced a2bd dd65 debc
000002d0: 8366 21bd a047 26bd eaba 34be 278c 333e
000002e0: eb25 e13d 6382 36be b0c9 3dbd ab15 9dbc
000002f0: 1eed 363d 6022 0abe d773 afbd 56ce 6cbe
00000300: cd43 5fbd a413 983e 96a1 343d b356 eb3d
00000310: e119 633d da50 66be 13da d5bc 7965 b3bd
00000320: 3d9b 7bbe c1b6 a7be 8709 ec3b 9187 1b3e
00000330: c61d 0dbd 8024 673e b40e 29be 7fb7 823d
00000340: aedf 17bd d374 193d 9b7d 113e 9921 6abe
00000350: e92d 04bc 1f1c d9bd dc26 293e 2036 7a3c
00000360: 39b0 6cbd 79ae 313d 7435 edbd 399e 893d
00000370: a8d0 ba3d 9ca0 d03c 5607 58bd 0fb2 0bbd
00000380: d1d6 5dbd ef52 62be e805 913d e5bb 8fbd
00000390: dad3 29be 806f bd3d 9af6 e83d fd11 81bb
000003a0: b920 cb3d 0ae9 083d 9ebc f43c 2129 bf3b
000003b0: 84ea b4bc 0cda a53d 6349 fdbe 9b0a 2c3c
000003c0: 782d 0b3c 6ba9 ecbc 9dd1 67bc ca22 fe3c
000003d0: 8c7a 823b 0076 733d a199 733d 1a8b 773e
000003e0: ae52 0dbe 3c74 98bd 6a4e 2cbe 1bd0 753d
000003f0: dceb 8a3c 6eca dfbd fcf8 aebc 174f 073d
-0.2820531 0.0035966532 -0.12002573 0.08238486 0.20200837 -0.08645833 0.09005696 0.05785655
-0.24119785 -0.33378786 -0.06739507 0.0029065183 0.08688021 0.12948915 -0.08396459 0.03166228
-0.027998412 -0.0052656108 -0.07167967 -0.08070526 0.073389396 0.053472035 0.29175368 -0.13226156
-0.0036980757 0.010643286 -0.11206011 0.037815195 0.03680208 0.08134766 -0.11864456 0.00090477837
-0.085802995 0.15710147 -0.05308459 -0.066539675 -0.008048851 0.02708941 -0.1053632 -0.12613481
0.015200705 0.030305713 0.04787428 -0.05190182 -0.023840241 -0.19332172 0.00993748 0.07685842
0.2439601 -0.24504317 -0.12017351 0.11655069 -0.29555935 0.05942993 -0.036227345 0.0769193
0.011753289 0.09539075 0.24315579 -0.15978125 0.108473614 -0.21335532 -0.028005563 0.073103756
0.074491665 0.03558403 0.1686612 0.2760103 -0.033145256 -0.15068491 -0.028315566 -0.27383682
-0.17702085 -0.10351151 0.0016826516 -0.13377528 0.02329261 0.063505754 0.21238074 -0.03492869
0.026645673 0.02149621 -0.14591779 -0.18360256 0.18382089 -0.1936781 -0.009090261 -0.08641125
0.23445824 0.22679806 0.23493135 0.032743376 -0.061696544 -0.031177705 0.31608605 -0.04594693
-0.021679215 0.14843017 -0.07396155 0.2539098 -0.06274931 -0.04023944 -0.13046981 -0.13238786
-0.06055028 -0.020731878 0.11144819 0.16522068 -0.003678057 -0.07501092 -0.11534785 0.07371076
0.018953342 -0.0044467123 -0.009440261 0.01340216 -0.12823816 -0.08852367 -0.019757858 0.034403928
-0.015959335 -0.091927744 0.18547139 0.06728208 0.08238218 -0.2620116 0.029799772 -0.025721494
0.054948904 -0.20605013 0.17785959 -0.05329797 0.22503969 -0.10708202 -0.09171696 -0.022624321
0.19289505 0.07005403 0.07997356 0.7400918 -0.4190568 -0.14656572 -0.24423918 -0.08304967
0.04161066 0.048995215 0.025716804 0.4282214 -0.25700042 -0.17753658 0.027072154 -0.06650599
0.025785198 -0.08770115 0.06398067 -0.10807471 0.17915194 -0.14980379 0.10347419 0.23424
-0.10749363 0.042597085 0.06922611 -0.047028963 -0.031474665 -0.23340328 0.09452712 0.10196807
0.1315196 -0.15085262 0.12730587 0.08708988 0.09389856 -0.028582234 -0.08061369 -0.03464251
0.08792678 -0.049013574 -0.07955441 -0.027148182 -0.039404403 -0.04059565 -0.17649427 0.17533933
0.109935604 -0.17823176 -0.046334922 -0.019175371 0.044659726 -0.13489676 -0.085670166 -0.23125586
-0.05450802 0.29702485 0.044099413 0.11491146 0.055444602 -0.2249178 -0.026104962 -0.08759589
-0.24570937 -0.32756618 0.007203284 0.15188433 -0.034452222 0.22572517 -0.16509515 0.06382655
-0.037078552 0.037464928 0.14208071 -0.22864379 -0.008067586 -0.10601067 0.1651873 0.0152716935
-0.057785247 0.04337928 -0.11582461 0.06719632 0.09121829 0.02546721 -0.05274137 -0.034105357
-0.054159943 -0.22101949 0.07081205 -0.0701826 -0.16584721 0.092497826 0.113751605 -0.003938912
0.09918351 0.03342537 0.029875096 0.0058337604 -0.022084482 0.0809823 -0.49470052 0.010500575
0.008494727 -0.028889379 -0.014149097 0.031022448 0.003981894 0.059438705 0.059472684 0.24174157
-0.13801071 -0.07444045 -0.16826788 0.060012918 0.01695817 -0.10927282 -0.02135896 0.03303441

map_2.bias f4 [12]
00000000: 8088 e33b 4a57 343a 04a5 4b3c e37a eebc
00000010: 82dc 5c3c f0c4 51bc ed3c 29bc fb51 073d
00000020: bc48 aebb 7017 0e3d 9a9b 2b3c 7dea 19bc
0.0069437623 0.0006879462 0.0124294795 -0.029111331 0.0134803075 -0.012803301 -0.010329467 0.033037167
-0.005318729 0.03469032 0.01047411 -0.009394285

map_3.weight f4 [12, 12, 3, 3]
00000000: 414d 97bd 4fbd 033d e228 8a3d 9d72 583d
00000010: 3f8b 4f3d 1370 f53c ca2f 113d 92ac 103d
00000020: 096d b8bd b563 80bd 4ffd 0b3d 0b5d 8c3b
00000030: 4aa8 cfbd a305 1b3e 3c60 71bc ff1c 90bd
00000040: 19ae ff3d 0250 523d 703d 473d 3e26 90bd
00000050: 8a81 823c f575 a8bd 192c 67be 0ce0 963d
00000060: bab4 a03c c516 61bd 502f b03d f228 483d
00000070: a8ed 103e 3ebb 383d f80a 5dbd a5ae 76be
00000080: 8170 0ebc 75ac eebc 67c5 c0bc b6e0 f13c
00000090: 218c fc3b 6298 0cbe b42c a3bc 2aa1 a93d
000000a0: df0b 503b ab84 edbb 6d57 f73d fc0d 9dbc
000000b0: f348 bbbc 8cf6 8d3d 0b9a ccbc 19ec 413d
000000c0: 5ef4 55bd f09c f2be 82c4 533d dc68 193d
000000d0: 6ccd e5bc aa9f 123b 1503 44bd 5e84 a23d
000000e0: af90 57bd d66b 8cba 8b34 82bc 7236 c23d
000000f0: 0aea 30bb 335a 2c3d 436b c63c ef21 31bd
00000100: b1a7 d03d 5b30 343d a876 8cbd 21e3 97be
00000110: 7641 00be a63d 1f3e dfb5 3b3e 49ff 89bd
00000120: 3364 bc3d 0793 f6bd 003a f0bc d968 5bbd
00000130: f3b4 f53e fe18 a1bd 79b7 833d 528b 273d
00000140: 79d9 0e3d 149a acbc 1c77 483b 71b2 5abd
00000150: 27f1 18be fcb3 b8be f8cd 2fbe 04fb 1d3e
00000160: facb bc3c ad12 a5bd 8dda e63d 2708 053e
00000170: d3de 40ba 30da ebbd a189 f23d e65e e53d
00000180: 1602 87bb 999c ba3d fd57 463d eb75 693d
00000190: 0cc7 1cbd 9814 033d 9de8 1a3e 75d5 d6be
000001a0: ad20 c63c d6c0 bebc a77d b33d 9639 c53d
000001b0: 8c03 0c3d 3b3f 0f3e 8668 80bd e193 e8bb
000001c0: 7e6c 2ebe 3a9c 22bc 3830 d23c c39e efbc
000001d0: aecd 9dbc 3587 873d 73b4 1ebc fba5 d33c
000001e0: aa76 24bd 20a0 dfbd a529 35bd 6ed2 3ebd
000001f0: a603 0d3e c199 e3bc 1c3d f6ba ed17 92bd
00000200: 9b90 80bb a632 3abd a333 293f 4dee 83be
00000210: a42a be3c f01f 14bd 1131 9bbc a4fd 0a3d
00000220: 6605 babd e8a3 5abd f064 deb9 cc80 d93d
00000230: 4ee6 b9bc 3c1c ccbb 103c ba3c 7428 13bc
00000240: 5f1a 99bd 1ce6 4e3d c668 dd3d 1cc4 dd3d
00000250: de27 54be 4430 e6bc aaa2 213d 49e4 16bc
00000260: a41c 87bd 810b 1c3d f0df 1e3b 59db ffbb
00000270: b2c5 01bc e469 f13d 4374 a63d 6058 2f3d
00000280: d089 44bc a5d2 64bd 98a9 353d 5e35 42bc
00000290: e3a2 2abd 8e75 063e b355 813d 9f55 17bd
000002a0: cc9e 0abe 625a a73d cffd 2dbd a93a 403d
000002b0: c50a a6bd 36a8 85bd bb20 1ebd 5da9 17bf
000002c0: 8659 5fbe dc2c c73c 1abd ae3d cfcd fd3a
000002d0: 8f51 0e3d 8c8a a73d 58ff a53d 8740 31be
000002e0: cf33 0c3c f0db e23d 6872 a53d 6545 f9bb
000002f0: 81ef 8a3d bab9 a03d 08ac 9f3d 5fc8 6e3d
00000300: 454e d6bd 11dc ba3d a9cf 503d e241 be3c
00000310: 9607 a4bd 32d6 ab3d 433f 6e3d d970 203e
00000320: 36f7 93bd 0558 56bd 9809 ee3a 92a3 88be
00000330: 9ca6 18bc f7f3 ba3c bd46 de3b 18f9 c03b
00000340: bde4 2fbe 5f0e 30bd c3a3 f03d 8bc6 1d3e
00000350: 6ed9 1d3d 931d f6bd c4a1 32bd d988 c53d
00000360: 6a02 503d cf5b eeba 2c2e 283e 1bec e63d
00000370: b227 263d 45f1 0c3d e8ec b5bd e7dd 9ebe
00000380: 093b a73d 284d b7bd 1e8d 0d3e 857c 52bc
00000390: 5cc9 353d 9df1 c2be c573 1dbc 303d d53c
000003a0: 736d 8a3e 8eeb 84bd e810 b0bb 6125 243e
000003b0: a01a 8bbd ee81 9b3d 48a3 58be 296f 813d
000003c0: d838 313d 2b64 4f3e 9589 9bbd 0e8b b83d
000003d0: 39d5 dcbb 1508 c2bd 9bfc abbd 5d45 3ebd
000003e0: 3f5d 993e 85ff adbc 8b0c 153e 443f 77be
000003f0: 0463 df3d 3ad3 10bd b4e6 85bc c266 dabd
-0.07387782 0.03216296 0.06746079 0.05284368 0.050669905 0.029960668 0.035445966 0.035320826
-0.09005172 -0.062690176 0.03417712 0.0042835525 -0.101395205 0.15138869 -0.014732417 -0.070367806
0.12484378 0.051345833 0.048642576 -0.07038544 0.01593091 -0.082256235 -0.22575416 0.07366952
0.019617427 -0.054953355 0.08602774 0.048867173 0.14153159 0.045100443 -0.05396554 -0.24090059
-0.008693815 -0.029134968 -0.023531629 0.029526096 0.0077071344 -0.13730004 -0.019918777 0.08282693
0.0031745357 -0.0072484813 0.12077222 -0.019171707 -0.022861933 0.06931791 -0.024975797 0.0473443
-0.052235 -0.4738536 0.051701076 0.037453517 -0.028052054 0.0022373 -0.0478545 0.07935403
-0.052628215 -0.001071329 -0.015894195 0.09483041 -0.0026994967 0.04207821 0.024221068 -0.043245252
0.101882346 0.043991428 -0.068585694 -0.29665473 -0.12524971 0.15550861 0.18331097 -0.06738145
0.09198799 -0.12039762 -0.029324532 -0.053566787 0.47989616 -0.07866095 0.06431479 0.04090435
0.034875367 -0.021069564 0.0030588573 -0.05339283 -0.14935742 -0.36074817 -0.17168415 0.15427786
0.023046482 -0.08060203 0.11272154 0.12991391 -0.0007357422 -0.11516225 0.11842657 0.11199741
-0.0041201217 0.091119 0.048423756 0.05699722 -0.038275763 0.03200206 0.15127797 -0.4195973
0.024185503 -0.02328531 0.08764201 0.09630124 0.03418307 0.13988964 -0.06269936 -0.0070977067
-0.17033574 -0.009924943 0.025657758 -0.029250508 -0.019263115 0.066175856 -0.009686577 0.025835982
-0.04015223 -0.10919213 -0.04422917 -0.0465874 0.13770923 -0.027783277 -0.0018786523 -0.0713347
-0.0039234883 -0.04545846 0.66094416 -0.25767747 0.023213692 -0.03616327 -0.018944295 0.033933297
-0.09083061 -0.05337897 -0.00042418344 0.10620269 -0.022692826 -0.0062289517 0.022733718 -0.008981813
-0.07475733 0.05051242 0.108109996 0.108284205 -0.20718333 -0.028099187 0.03946177 -0.009209701
-0.0659726 0.03809691 0.0024242364 -0.0078081307 -0.007920669 0.11787775 0.08127644 0.04280889
-0.011995748 -0.05586495 0.04435119 -0.011853544 -0.041659247 0.13130781 0.06315174 -0.03694689
-0.13537139 0.08171536 -0.04247838 0.046930943 -0.08107523 -0.06526224 -0.038605433 -0.592428
-0.21811494 0.024313383 0.08532162 0.0019363704 0.03474575 0.081807226 0.081053436 -0.17309771
0.008557274 0.11077106 0.08078462 -0.0076071494 0.06783963 0.078479245 0.07796484 0.058296558
-0.104641475 0.091240056 0.05097929 0.023224775 -0.080092594 0.08390464 0.0581658 0.15668048
-0.07224886 -0.052330036 0.0018160818 -0.26687294 -0.0093170665 0.02282141 0.006783335 0.0058890693
-0.171771 -0.042982455 0.11749985 0.1540777 0.038537435 -0.120173596 -0.043611303 0.09645242
0.050783552 -0.001818532 0.16423863 0.11275502 0.0405652 0.03440978 -0.08883077 -0.31028673
0.08165557 -0.08950263 0.13823363 -0.012847071 0.044381484 -0.3807496 -0.009610121 0.026030153
0.27036628 -0.06490241 -0.005373109 0.16029884 -0.06792188 0.075931415 -0.21156037 0.0632003
0.0432671 0.20253055 -0.07594601 0.090108976 -0.0067392853 -0.09474198 -0.0839779 -0.04645287
0.29953954 -0.021240005 0.14555566 -0.24145228 0.109075576 -0.03535769 -0.01634536 -0.10664131

map_3.bias f4 [12]
00000000: 5a66 27bc de73 a83c 21a4 34bb f995 89bc
00000010: 2b82 82bc 9c71 2c3d 8600 08bc 5e77 b5bc
00000020: 464f 35bd 21af 303b 60ae d0bd 20d7 c93c
-0.010217274 0.020563062 -0.0027563649 -0.016795145 -0.01593121 0.042100534 -0.008300906 -0.022151645
-0.044265054 0.0026959854 -0.101895094 0.024638712

map_4.weight f4 [12, 12, 3, 3]
00000000: 67af 673d 98fb 70bd 8ab5 753c 6951 c9bd
00000010: 3365 c63e d964 6ebd 9220 af3d 6cda 2fbd
00000020: ee57 4f3e f50d 8ebd dbc6 57bd 2100 b43c
00000030: 3efe 033e d84c 883e 716c 813d 0649 d8bd
00000040: a1d0 edbd edbb 82be 4899 8fbd 1cfa 3abe
00000050: 1e19 dc3d 293a 983d 43df 4a3e d55c 0bbe
00000060: 000a f03b 4586 1a3c 53f1 20be 62a2 c43d
00000070: 6614 c13d 5250 803d 53aa 3b3d 9047 01be
00000080: 42bf cfbd d690 54bd 898e 40be 5f99 f33d
00000090: 5db5 883d be36 11bc d60d c0bd e15f 163e
000000a0: 6545 df3d 715c 093d da3c 023d 154c 2ebd
000000b0: 4357 8dbe 92d9 26bd e512 673d e377 153e
000000c0: 309b 0ebe d903 70be b705 99bd cd0e 903d
000000d0: 659b 883d 232b eebe 3387 d23d 981c 133e
000000e0: b0e1 1fbc 93cf 2ebd b195 b4bd a05b b3bc
000000f0: 4b8d 6cbc e8ea d2bd 2559 cdbe 695f 28bd
00000100: 92ff 363c 1edd 4abd 1cdc 98bd 9a65 c3be
00000110: e207 d2bc 5114 0fbe c117 e43c d069 303e
00000120: 57da b5bd 1718 4dbc a7e2 883c 89fc b2bc
00000130: acfe 02be aa77 773e cb0e 8a3d cc79 b23e
00000140: f584 8dbd e86b 1cbc ce1a 8bbc 9a7d 3bbc
00000150: eb0c 20bd 4017 423e 6a5e 87bd a826 173c
00000160: 206c e0bb ad05 103e ef49 593d 526e f33d
00000170: 6a4a 4dbe a03b 08be 323a c83d d0a5 933e
00000180: d020 573e b64f 7d3e 1915 9d3e 691c e0bd
00000190: 7758 35bd 1003 a33c c675 8e3b 6731 5c3e
000001a0: f11a bd3c f962 ca3d 9aeb 613e 80e1 be3d
000001b0: 230f a7bd 32a5 8f3e 7567 ef3d 7188 673c
000001c0: 6d27 25be ca45 e33d fced a9bd 4f6e a4bd
000001d0: c9b5 a63b be5d 3abd 480a d43d cecc b13c
000001e0: c10c 77be baa9 8e3c 4806 b6bd cc1d 123d
000001f0: 9605 fc3d 746f 973c 45d2 943d 6205 1d3e
00000200: adb9 ad3c 8705 b5bd 10db dd3d c9a7 90bd
00000210: af25 17bd 088b 923d 34bc c03b cec7 68bb
00000220: 2d8a 98bd fe36 c13d 9f08 8a3d 718f f5bd
00000230: 0daf 313d 5356 9bbc 3e74 b03d eec8 fcbc
00000240: bfa4 103c f93d 3f3b 68bd 043d df71 eabc
00000250: 7504 0f3e 1ef4 59be 399c 56bc 00f9 c53d
00000260: fb2c 0e3c 9ab3 c0bd fa4e a93c f2ad a5bc
00000270: e1cc a03d b3d1 1e3e 5c8c e1bd 3d47 75bc
00000280: effb 813e 1f8a e53c b0cf c4bb a42f 28bc
00000290: 395d 293d 47cd 893d 1123 72bd 0277 0abe
000002a0: 109e 82bc 927b 00bd 7944 3e3d d9f9 e53d
000002b0: 52c4 8fbd 4c5c 963c cf43 173e 407f d43d
000002c0: 3c3c 233d b13a 973c 0a5e 9ebd 47ed c7bc
000002d0: cd52 f03d 5f61 d63d 403b b63d 38ac 03be
000002e0: ff88 d73d 8c38 333a 149c c4bc 9df5 f7bb
000002f0: 2808 a13d 91b9 d3bd 66c4 943d a77b a8bc
00000300: 56d3 07bd 7f3f 263e 4d3c e43d 8faf 30bd
00000310: 4453 23be 6a92 eabc bfff 58bd 7ac8 613e
00000320: 8099 043e c0ca 0b3c fe8c b03d 1f19 4a3e
00000330: 5842 c2bd d5b1 27bc 2da8 74bd 599d 9f3b
00000340: d78f 183e cdcf e33b 63ca 0b3e fb53 07be
00000350: 0b9a 903d 2289 73bb 02b1 0cbd b865 a03c
00000360: f65d 0f3e 7691 a6bc 9ab8 913d d001 5abd
00000370: fbf4 1a3e 20c6 f63d db76 9b3d 4339 bd3d
00000380: 0bb0 c6bc 6d4a 2d3e b72a 1f3e 522f d03c
00000390: 5039 503e d83e 59bd baaf a9bd f6e1 f5bd
000003a0: c45a eabd 72ab 923c 85da 9abe 7f9c cfbe
000003b0: 9f22 95bd 7611 debc 62a3 f9bd ba4d 093e
000003c0: 16bd afbd 867b e9ba 4d03 5bbd 9a0e c73d
000003d0: 18d3 0a3d 7b36 c43d f5cb b13e 9d32 d1bc
000003e0: 3ac3 a6bb dfcd 45bd 7710 7cbd e7a6 9ebd
000003f0: fe4b 2e3e d333 f73e fe84 8d3e f339 f13e
0.05656376 -0.05883369 0.014996896 -0.09829981 0.38749084 -0.058201645 0.08551134 -0.042932913
0.20248386 -0.06936256 -0.052679878 0.021972718 0.12889954 0.26621127 0.06319512 -0.10560803
-0.116120584 -0.25534 -0.07011658 -0.18259472 0.10746978 0.07432968 0.1981173 -0.13609631
0.007325411 0.009431426 -0.15717058 0.096012846 0.09427719 0.0626532 0.04581673 -0.12624955
-0.101439014 -0.05189594 -0.18804373 0.118944876 0.06675217 -0.008863149 -0.09377639 0.14685012
0.10901908 0.033535425 0.031796314 -0.042553026 -0.27605638 -0.040734835 0.056414504 0.14596514
-0.13926387 -0.23438968 -0.07471793 0.07034073 0.06670264 -0.46517286 0.102796935 0.14366376
-0.009758398 -0.042678427 -0.08817614 -0.021894276 -0.014437984 -0.10298711 -0.40107074 -0.041106615
0.011169331 -0.04952728 -0.074638575 -0.38163453 -0.025638524 -0.13972594 0.027843358 0.17227864
-0.08879536 -0.0125179505 0.016709639 -0.021848934 -0.12792462 0.24166742 0.06741103 0.3485855
-0.06910125 -0.009547211 -0.016980555 -0.01144352 -0.03907482 0.18954182 -0.06609805 0.009225525
-0.006848827 0.14064665 0.053049024 0.11886276 -0.20047918 -0.13303995 0.09776725 0.28837442
0.2100861 0.24737439 0.3068016 -0.10942919 -0.04427382 0.019898921 0.004347536 0.2150322
0.023084136 0.09882159 0.22062531 0.093203545 -0.08157184 0.28055722 0.11689655 0.014131651
-0.16128321 0.110972956 -0.08297345 -0.08028852 0.0050875884 -0.045499556 0.103535235 0.021704104
-0.24125959 0.017414916 -0.08887917 0.035672948 0.12305753 0.018485762 0.07266668 0.15334085
0.021206701 -0.08838945 0.108327985 -0.070632525 -0.036901172 0.07155424 0.0058818106 -0.0035519483
-0.0744823 0.09434317 0.067399256 -0.1199025 0.043379832 -0.018962061 0.086159214 -0.03085753
0.008828341 0.0029181226 0.032407194 -0.028618751 0.13966544 -0.2128453 -0.01309877 0.096666336
0.008677716 -0.09409256 0.020667542 -0.020224545 0.078515776 0.15509681 -0.110130996 -0.014970598
0.25387523 0.028019963 -0.0060062036 -0.010265265 0.04134867 0.06728607 -0.059115473 -0.1352196
-0.01594451 -0.031367846 0.04645202 0.11229295 -0.07019867 0.018354557 0.1477196 0.103758335
0.039852366 0.018460603 -0.0773278 -0.024405135 0.11734543 0.10467791 0.0889802 -0.12858665
0.10524177 0.0006836734 -0.024000205 -0.007567121 0.07862884 -0.10338128 0.072640225 -0.020566775
-0.03316053 0.1623516 0.11144314 -0.043136176 -0.15949732 -0.028634269 -0.052978273 0.22049132
0.1294918 0.008532226 0.08620642 0.19736145 -0.0948531 -0.01023527 -0.059730697 0.004871052
0.1489862 0.006952262 0.13651423 -0.1321563 0.07060631 -0.0037160595 -0.034348495 0.019579753
0.14000687 -0.020333033 0.07115288 -0.053224385 0.15132515 0.12049508 0.07591029 0.092394374
-0.024253866 0.16922922 0.15543638 0.02541319 0.20334363 -0.053038448 -0.0828547 -0.12005989
-0.114430934 0.017904017 -0.30244842 -0.40549085 -0.07281994 -0.027107935 -0.12189366 0.13408557
-0.08580987 -0.0017813302 -0.053469945 0.09719582 0.03389272 0.09580704 0.3472592 -0.02553683
-0.005089191 -0.048292037 -0.06153914 -0.07746678 0.17021176 0.48281726 0.27640527 0.47114524

map_4.bias f4 [12]
00000000: 5387 a53d 2c2d 63bc 97e5 9fbc 7e5c 2a3e
00000010: bf1d cbbb f765 17be 66e8 54be b037 b13c
00000020: 0a39 67ba 0529 78bd 6622 753b 2fa2 04be
0.08082452 -0.01386575 -0.019518657 0.16636845 -0.0061986144 -0.1478499 -0.20791778 0.021633
-0.000882045 -0.060585994 0.0037404536 -0.12952493

activation_3.weight f4 [12]
00000000: 8d4a 073f 9e5d 523f 65b4 d73e ebba c93e
00000010: f845 183f fcaa 663e 7e86 f93e aee8 7e3f
00000020: 730e 7f3f 4ab9 063f 019a 8a3f 40f8 8b3e
0.5284813 0.821741 0.42129818 0.3940042 0.59481764 0.22526163 0.48735422 0.9957379
0.9963142 0.5262648 1.0828248 0.27337837

expand.weight f4 [56, 12, 1, 1]
00000000: 2430 033d b264 c2be dddc 3ebf 04da f43e
00000010: f812 23be a6ff 42be 10d3 20bc e07f 483e
00000020: 9f24 86bd 6c15 133f ef57 37be 6bbc 8c3e
00000030: 1692 e33d e69b b0be a094 70be 2529 8d3e
00000040: caf0 95be 6974 883d fe74 ac3e 3ae5 efba
00000050: 4718 8fbd 3be7 783e fb87 03bf ce72 06bf
00000060: 4602 e0bd 3b7b 033f 7288 973d 5139 1d3e
00000070: d011 aa3d 5ed3 e43d ad87 f33d 0223 f43c
00000080: 7f62 6f3d 5f8d cb3e cb2b d9be 8013 9a3e
00000090: c72a e73d 7edd 533d 79b2 6b3d a08c 93bd
000000a0: 69a2 31bf 1f9d 6cbe b6c7 30be b1ee 133d
000000b0: 22e9 f4bc 038c ee3c 0839 533c 64aa 563d
000000c0: f7ea e2be 1fde 87bd 9de1 ba3d 1aff 5bbe
000000d0: 88dc adbe 7875 83be d828 16be 39b7 643d
000000e0: 4b67 8cbc 7e49 1cbe def9 053e 868c 543f
000000f0: fa32 d3bc b188 81bd 8895 8ebe 2948 c2bd
00000100: 96ec 3fbc 729b 483e dfb0 4dbe 3252 073e
00000110: b44a dbbb d895 b43e a61b 143e 289e 603f
00000120: b3ed 1abf 5e18 f9bd a46e 183e 4755 65be
00000130: 5d0e 1bbe 7487 67be 29d7 48bd b61c 07bc
00000140: a6e7 9dbc c1ef 4cbe 1daf 863e 6293 2b3f
00000150: db7b cc3e f4d1 4abe 15b7 0fbe 0dbc 36be
00000160: a072 7a3d 5755 393f f2f7 66bf d139 6d3e
00000170: 30be f3be bf55 2d3f f084 223d 62b2 1d3e
00000180: 4552 093f 13c9 ca3d 9893 f0bc 6f2c 2d3c
00000190: 4ba3 0b3e 6e42 263f 3c01 b73e caa8 8bbb
000001a0: 1cca c5bb 6848 cfbd 76c1 c4bc 4672 a5bc
000001b0: 7471 35be 6075 1abf f2c3 233e 2e58 f93e
000001c0: bee9 6ebd c51f c53d 9dfa 18bc f196 2fbe
000001d0: 4a24 debd 4ed9 093e 55ac aabd 3a04 9b3f
000001e0: 992c 3c3e 5326 c13e 3d59 0cbe dcfb e53d
000001f0: cd08 053e 1639 463f 2f3e af3e da06 a43d
00000200: 153b 1f3e 1742 623e 722b 1cbe 9278 9fbe
00000210: 32d5 3c3f 6e9a a3bd f135 373e f1c1 09be
00000220: 0fac 93bc 5907 63bf 382d 353f bc3e 55be
00000230: bb8a eebc 55e2 f8bd 848a 9f3d 6e4d 2bbe
00000240: 5c14 a93e 71db 26bd 3041 dc3d 13c8 98bd
00000250: bb8a 883e 04f6 abbe 6d6d 943e 02f4 db3d
00000260: d8a1 00bd a857 ba3d f02e dbbe 2444 353f
00000270: 92ae ab3d 8ae6 b43e e94f 09be 5ed3 4a3e
00000280: 21b3 263c cb93 cf3e a43d c3bd 120a 563e
00000290: b2f4 213d 3a86 823e e977 debe 4e4b 433e
000002a0: 13ca 1e3e c82d 5d3e 4b44 26be ba9b e9bf
000002b0: 63a0 f2bd 1a24 e93e f219 e03d 9681 dcbc
000002c0: f984 b4bb c33c 813d 9fe0 17be abc0 a13e
000002d0: 8dc1 37be 29b4 05bf 450c 663e 69dc cf3e
000002e0: eec0 03be e254 1a3e 95db 933e f8c7 dfbd
000002f0: 6317 703d 2934 fb3c 4ecd aa3c eeb8 8e3f
00000300: 50b9 21be d620 273e 2078 0dbf 0bb1 1a3e
00000310: 6b5c 60bc 8a0e f4be 79ed c9bd 6d44 2f3d
00000320: f0c3 863c 74a1 763e a57a ca3d 0a87 203e
00000330: f987 803e fbe9 bdbe 489e 413e 0914 e1bc
00000340: 1ab2 0fbf 9027 94bd c7f3 a53d 47d0 573e
00000350: 100f d03e 328e 9abd 80f4 07bd fb84 8fbe
00000360: 266f 38be e1ec f2be aaff 893c 2d05 493c
00000370: 1fcd e73e 6ff1 623f 74eb a93e 214b 71bd
00000380: 9592 5bbd 841d e93e 20f2 e93c af26 07bf
00000390: 9453 d8bd fd67 293c e8d3 d73d 69e0 4dbe
000003a0: 2ead 9bbe 87c2 053e 7f81 ad3f f816 13be
000003b0: 9873 243d 29ba 66be 2755 813d f9b3 cd3e
000003c0: d857 1dbd 5898 d8bc 668d 643e c8b3 53be
000003d0: 8432 c43c a966 0040 f1b4 18bd edec 1cbd
000003e0: 8e59 463d 760f 833e 84b9 2e3e 18df efbe
000003f0: 26d4 e83d 6f9c ba3d 7ae3 3c3e 1c5b 523e
0.032028332 -0.3796745 -0.7455576 0.47822583 -0.15925205 -0.19042835 -0.009815946 0.1958003
-0.06549954 0.5745456 -0.17904638 0.27487502 0.11111848 -0.3449394 -0.23494196 0.27570453
-0.2928527 0.066628285 0.33683008 -0.0018302568 -0.069870524 0.24306957 -0.51379365 -0.5251893
-0.109379336 0.5135991 0.07399072 0.15353896 0.08304179 0.111731276 0.118911125 0.02980185
0.058443543 0.39756295 -0.42416224 0.30093002 0.11287456 0.051724903 0.05754325 -0.072045565
-0.69388443 -0.23106812 -0.17263684 0.036116306 -0.029896323 0.029119497 0.012892015 0.05240859
-0.4431989 -0.06634163 0.091250636 -0.21484032 -0.33957314 -0.2567556 -0.14664018 0.055838797
-0.017139098 -0.1526241 0.13083598 0.8302692 -0.025781143 -0.063249 -0.27848458 -0.0948642
-0.011714121 0.19590548 -0.20087002 0.13214949 -0.006692255 0.35270572 0.14463672 0.8774133
-0.6051895 -0.12162851 0.14885956 -0.22395812 -0.15142198 -0.22610265 -0.049033318 -0.008246591
-0.019275498 -0.20013334 0.26305476 0.67021763 0.39938244 -0.19806653 -0.14034684 -0.17845173
0.06114447 0.72395843 -0.90222085 0.23166586 -0.4760604 0.67708963 0.03967756 0.15400079
0.5364116 0.09901633 -0.029367253 0.010569676 0.1363651 0.64945114 0.3574313 -0.0042620646
-0.006036056 -0.10121232 -0.02401803 -0.020196091 -0.1771906 -0.6033535 0.15992716 0.48700088
-0.058328383 0.096252 -0.009337095 -0.17147423 -0.10846765 0.13461801 -0.08333651 1.2110665
0.18376388 0.37724552 -0.13705917 0.11229679 0.12991638 0.77430856 0.3422713 0.08009119
0.15549882 0.22095524 -0.15250948 -0.31146675 0.7376281 -0.079884395 0.17891671 -0.13452889
-0.01802638 -0.88683087 0.70772123 -0.20824713 -0.029118886 -0.121525444 0.07790092 -0.16728756
0.33023345 -0.04073662 0.10754621 -0.07460036 0.26668343 -0.33586133 0.28989735 0.107399
-0.031404346 0.0909875 -0.42809248 0.708071 0.08382906 0.35332137 -0.1340939 0.19807193
0.010174544 0.40542445 -0.095332414 0.20902279 0.03954 0.25493032 -0.4345086 0.19071695
0.15506773 0.21599495 -0.16236989 -1.8250649 -0.118469976 0.45535356 0.10942449 -0.02691726
-0.0055090156 0.063104175 -0.1483178 0.31592306 -0.17944928 -0.5222803 0.22465618 0.40597847
-0.12866566 0.15071443 0.28878465 -0.10926813 0.058616053 0.03066452 0.02084985 1.1150186
-0.15793347 0.1632112 -0.5526142 0.15106599 -0.013693909 -0.47667342 -0.098597474 0.042789865
0.016450852 0.24085027 0.09886674 0.15676513 0.2510374 -0.37092575 0.18908036 -0.027475374
-0.56131136 -0.072341084 0.081031375 0.21075545 0.40636492 -0.07546653 -0.033192158 -0.28031144
-0.1801115 -0.4744635 0.016845543 0.0122693 0.45273682 0.8864965 0.3318745 -0.05890954
-0.05360659 0.4553033 0.028557837 -0.527934 -0.10562816 0.010339734 0.10538465 -0.20105137
-0.30405563 0.13062488 1.3555144 -0.1436423 0.0401493 -0.22531952 0.0631507 0.4017637
-0.038413852 -0.02643983 0.22319564 -0.2067405 0.023949869 2.0062659 -0.037281934 -0.038311888
0.04842525 0.25597733 0.17062956 -0.46849895 0.11368589 0.091118686 0.1844615 0.20542568

expand.bias f4 [56]
00000000: fe39 2abd 636d 68bd 3d30 863c 957e 08bd
00000010: 8ca7 99bb 18fc f23c 615b 093b 6747 823b
00000020: 3a5b 6f3d 4d67 f9bc 41c2 e93c 2ab5 1dbd
00000030: 2a79 4b3d 02e4 2a3d 1f9c 5cbd be13 203b
00000040: dbf5 80bc 2f0a 51bd 9fad 773d b5fe 893d
00000050: 4762 a93d cb00 bebb 8613 a63c b126 42bd
00000060: 7a92 85bd f056 a83c 55d2 3bbd 1e4b 5c3d
00000070: 76e9 303d 2b05 26bc 0a53 b33c c04c 63bd
00000080: fe93 103c acde cf3c ef8b 753c 3242 be3c
00000090: 7f36 913c a367 92bc ce0f 503b a31c 323d
000000a0: e28d edbb 55f9 973d de83 02bd 35c0 913c
000000b0: 4375 71bd 2082 febb 7993 4a3b eb57 cdbb
000000c0: 219f 0a3d 62ee ec3c b504 95bd e682 9a3a
000000d0: 8e7d 013d d2c6 a4bc b1a1 99bd 6935 fc3c
-0.041559212 -0.056744944 0.016380424 -0.033323843 -0.0046891626 0.029661223 0.0020959007 0.003975797
0.05843661 -0.030444765 0.02853501 -0.03850285 0.049676098 0.04172135 -0.053859826 0.002442583
-0.015742233 -0.051035102 0.060468312 0.06738035 0.08270698 -0.0057984344 0.020272981 -0.04740018
-0.06522079 0.020549268 -0.045854885 0.053782575 0.043191396 -0.010133068 0.021890182 -0.055493116
0.008824347 0.025374733 0.014986976 0.023224924 0.017726181 -0.017871683 0.0031747702 0.04348434
-0.0072495798 0.07420603 -0.03186404 0.017791847 -0.05894972 -0.007766977 0.0030910654 -0.006266584
0.033843163 0.028922264 -0.072762884 0.0011788278 0.03161388 -0.020114336 -0.07501543 0.030787187
