sr_weight/SRCNN-955.pt (torch, 278999 bytes, 6 tensors)

patch_extraction.weight f4 [64, 3, 9, 9]
-0.026321637 -0.02363776 0.004997701 0.0152103305 0.013579869 0.00638949 -0.009584595 -0.018643769
0.009402881 -0.026743405 -0.006355783 0.010879039 -0.0026824176 -0.022332292 -0.0097299 0.005338145
-0.009350693 -0.016262935 0.0068147406 0.015408538 0.0056965244 -0.006050739 -0.021263741 -0.0074320305
0.013712307 0.0124755325 -0.0055626677 0.022701334 0.0036491335 -0.010419597 0.02565186 0.042276006
0.025217816 0.0058006314 0.008769785 0.0017061667 0.017116852 -0.018013569 -0.022782907 0.03888422
0.07385193 0.037906405 -0.008939141 -0.002800775 0.005115903 0.007101714 -0.0053530135 -0.0034077486
0.02350759 0.036303163 0.020284817 0.0010112242 0.011433271 0.0134760225 -0.0074476497 0.0064609754
0.013877756 -0.0057756766 -0.019381016 -0.007485041 0.013449865 0.015877485 0.011280403 -0.028640404
-0.011517717 0.0054731304 -0.00030676828 -0.0064728074 0.007656059 0.017182522 -0.009252899 -0.009096473
-0.005517203 -0.020009235 -0.009141764 0.014752606 0.030882685 0.026468847 -0.00021015303 -0.038092405
-0.0143854525 0.0138494205 0.010528527 0.014482134 0.029073227 0.031493653 0.017982686 -0.0067894747
-0.018584836 -0.016416658 0.0073445854 0.003272239 -9.84845e-05 0.0126669 0.025562832 0.023268498
0.009472639 0.00044212813 -0.0051424103 0.010662305 0.0043778513 -0.011270004 -0.016153447 -0.0036766736
0.0033486043 0.011352838 0.019575732 0.014167087 0.024214242 0.019232059 -0.00903736 -0.027988346
-0.028948534 -0.018798351 0.0073566902 0.037479196 0.032905158 0.0263568 0.03177705 0.0031852217
-0.021711925 -0.034263104 -0.026644228 0.0020127853 0.035475396 0.03701042 0.010231873 0.023527531
0.0066338307 -0.011357681 -0.020103494 -0.018458936 -9.194963e-05 0.023693461 0.022281852 -0.009763348
0.0009183284 0.0018748656 0.006163559 0.0069021364 0.004725235 0.0013145771 0.0072015557 0.0027757727
-0.01494201 -0.01142225 0.0037981614 0.026814893 0.03684093 0.030815495 0.009909611 -0.0033783866
-0.011675713 0.0013894337 -0.008206964 0.0046920097 0.021709917 0.031125687 0.024324534 0.0045013805
-0.007875797 -0.014784031 0.009371835 0.015595073 0.009384581 -0.0021119989 -0.013748346 -0.008448453
0.0031647196 0.010624395 0.007127673 0.011141043 0.005319996 -0.0063117403 -0.017211078 -0.024910817
-0.017013988 -0.007520338 0.0008713289 -0.0008413112 0.004845056 -0.013680808 -0.016163005 -0.011429795
-0.00834355 -0.003975579 -0.005921533 -0.009357472 -0.0079508675 -0.005458685 -0.027884016 -0.017055612
0.007670222 0.025538241 0.020279765 0.0012940029 -0.018142927 -0.019056266 -0.011625663 -0.03296893
-0.013775673 0.021288523 0.04627597 0.036166552 0.002915379 -0.02391512 -0.022768402 -0.007316241
-0.023858363 -0.009409161 0.020222565 0.0387607 0.027807703 -0.0002152791 -0.022029616 -0.01797936
0.0021598719 -0.008662145 -0.0061461325 0.0048087435 0.012949948 0.007691888 -0.0043621 -0.009346416
-0.004128448 0.0027050849 -0.0012086272 -0.0047062095 -0.007546419 -0.010787508 -0.0054326695 0.0012784642
0.006885098 0.015881415 -0.0020886771 0.0012363881 -0.0016698139 -0.009967987 -0.016200453 -0.008551792
0.0061949412 0.021580126 0.026100356 -0.0052330336 -0.010997253 0.0023211222 0.005994341 0.0033850824
0.0025287594 0.004169877 -0.0057946104 -0.0029308074 -0.00087654655 -0.0042184102 0.005008322 -0.002624172
00000000: 79a0 d7bc faa3 c1bc c1c3 a33b c034 793c
00000010: 197e 5e3c ed5e d13b b508 1dbc d1ba 98bc
00000020: 8b0e 1a3c fc14 dbbc 2c44 d0bb ff3d 323c
00000030: 80cb 2fbb 36f2 b6bc 296a 1fbc 9beb ae3b
00000040: a633 19bc d939 85bc 304e df3b 1874 7c3c
00000050: e9a9 ba3b 4745 c6bb 4c31 aebc 6488 f3bb
00000060: 96a9 603c 2d66 4c3c 0a47 b6bb 26f8 b93c
00000070: 4d26 6f3b f5b6 2abc d923 d23c 9b29 2d3d
00000080: 9895 ce3c 3913 be3b 25af 0f3c 74a1 df3a
00000090: a438 8c3c 3191 93bc 38a3 babc 0f45 1f3d
000000a0: ae3f 973d bf43 1b3d 7a75 12bc 358d 37bb
000000b0: 4ea3 a73b 7fb5 e83b 5568 afbb 8954 5fbb
000000c0: fd92 c03c a0b2 143d 582c a63c 0e8b 843a
000000d0: 9d52 3b3c 89ca 5c3c 6a0b f4bb 97b6 d33b
000000e0: 875f 633c e341 bdbb f0c4 9ebc 1345 f5bb
000000f0: d35c 5c3c 8011 823c 70d1 383c 489f eabc
00000100: ceb4 3cbc f257 b33b bed5 a0b9 d819 d4bb
00000110: aedf fa3b 5cc2 8c3c 7999 17bc 6009 15bc
00000120: a7c9 b4bb 68ea a3bc 56c7 15bc eab4 713c
00000130: affd fc3c 32d5 d83c 865c 5cb9 c806 1cbd
00000140: f6b0 6bbc aee8 623c d87f 2c3c 7946 6d3c
00000150: fa2a ee3c 7dff 003d 6d50 933c 3e7a debb
00000160: 3a3f 98bc 3a7c 86bc d9aa f03b 0f73 563b
00000170: 7789 ceb8 d488 4f3c 2569 d13c 949d be3c
00000180: 2133 1b3c 6fcd e739 aa81 a8bb f3b0 2e3c
00000190: 1474 8f3b d3a5 38bc 3c54 84bc 59f4 70bb
000001a0: 4274 5b3b 4101 3a3c 495d a03c 121d 683c
000001b0: f25c c63c 8d8c 9d3c 6f11 14bc d147 e5bc
000001c0: 7a25 edbc 00ff 99bc 6410 f13b c983 193d
000001d0: 8fc7 063d 37ea d73c a728 023d 27bf 503b
000001e0: 35dd b1bc 7857 0cbd ff44 dabc efe8 033b
000001f0: a64e 113d 3d98 173d 96a3 273c cfbc c03c
00000200: 9b60 d93b 9115 3abc 15b0 a4bc 3237 97bc
00000210: 15d5 c0b8 ca18 c23c 6e88 b63c 73f6 1fbc
00000220: fabb 703a 0dbe f53a aef7 c93b 512b e23b
00000230: 25d6 9a3b e34d ac3a 07fb eb3b bde9 353b
00000240: 55cf 74bc 6424 3bbc 93ea 783b e8aa db3c
00000250: 84e6 163d c770 fc3c ec5b 223c ec67 5dbb
00000260: 7d4b 3fbc a91d b63a 8076 06bc 6ebf 993b
00000270: ffd8 b13c 4cfb fe3c 3f44 c73c 5180 933b
00000280: 7d09 01bc b838 72bc 538c 193c 7a82 7f3c
00000290: c9c1 193c 7669 0abb be40 61bc 616b 0abc
000002a0: 2f67 4f3b f111 2e3c 418f e93b ec88 363c
000002b0: 5c53 ae3b b7d2 cebb 3ffe 8cbc c511 ccbc
000002c0: eb60 8bbc 2b6d f6bb e569 643a 708b 5cba
000002d0: 47c3 9e3b 7825 60bc 4768 84bc 0944 3bbc
000002e0: 63b3 08bc 9345 82bb 6b09 c2bb 1550 19bc
000002f0: 5b44 02bc c5de b2bb 056d e4bc 36b8 8bbc
00000300: 7c56 fb3b 9335 d13c c021 a63c 889b a93a
00000310: 7aa0 94bc e31b 9cbc 9179 3ebc 6e0a 07bd
00000320: 5cb3 61bc 4565 ae3c df8b 3d3d 6123 143d
00000330: f10f 3f3b a4e9 c3bc cd84 babc 14bd efbb
00000340: 9d72 c3bc e228 1abc cba9 a53c 8ac3 1e3d
00000350: fbcc e33c 8bbc 61b9 7477 b4bc 7349 93bc
00000360: a38c 0d3b abeb 0dbc 7f65 c9bb aa92 9d3b
00000370: 052c 543c 3c0c fc3b f2ef 8ebb b621 19bc
00000380: ef47 87bb cb47 313b cd6a 9eba 8c36 9abb
00000390: f347 f7bb 17be 30bc 8904 b2bb 2492 a73a
000003a0: 639c e13b be19 823c 30e2 08bb 4d0e a23a
000003b0: a8dd daba c550 23bc d0b6 84bc d11c 0cbc
000003c0: effe ca3b cec8 b03c 6ad0 d53c de79 abbb
000003d0: d22d 34bc f81d 183b 2d6c c43b 42d8 5d3b
000003e0: 8bb9 253b 77a3 883b b7e0 bdbb ca12 40bb
000003f0: 0bc8 65ba 973a 8abb da1c a43b 4dfa 2bbb

patch_extraction.bias f4 [64]
0.00035997343 0.0035316923 0.007975224 -0.06852684 -0.00011879424 -0.028087478 0.0019779506 -0.24078894
-0.0002668335 0.0061432775 -0.00012992579 -0.00011904739 0.0 -0.00016457481 0.0 -0.00013508505
0.003746964 -0.004927525 -0.00016255325 -0.0033157747 -0.0010526569 0.0048160604 0.00093464274 8.27222e-05
-0.00011327065 0.0040545873 0.005429686 -0.0014116319 -0.006529951 -0.0005460486 0.0 -0.002515206
-0.006211231 0.0 -0.004650723 -0.0001553046 -0.0047983266 0.0 -0.007350062 -0.005581072
-0.0030824959 0.019294387 0.048582695 -5.0588933e-05 -0.00019029062 -0.000120673554 0.001727905 0.0052386895
-0.001308816 -0.005199269 -2.9937974e-05 -0.0047050486 0.0 -0.00011507808 -0.004753817 -0.012006588
-0.02917862 0.002396934 -0.00017407624 1.9950463e-05 0.00042574856 0.047127284 0.0 -0.0009786034
00000000: d1ba bc39 f773 673b 84aa 023c cd57 8cbd
00000010: 2c21 f9b8 b617 e6bc 81a0 013b 6091 76be
00000020: c9e5 8bb9 8c4d c93b b03c 08b9 15a9 f9b8
00000030: 0000 0000 b791 2cb9 0000 0000 9ea5 0db9
00000040: a08f 753b 1377 a1bb 0e73 2ab9 784d 59bb
00000050: 4ef9 89ba 0bd0 9d3b d002 753a 257b ad38
00000060: b88b edb8 58dc 843b 82eb b13b 8206 b9ba
00000070: 33f9 d5bb b424 0fba 0000 0000 28d6 24bb
00000080: 9587 cbbb 0000 0000 1865 98bb 43d9 22b9
00000090: 483b 9dbb 0000 0000 cad8 f0bb 6de1 b6bb
000000a0: b303 4abb 430f 9e3c a6fe 463d 742f 54b8
000000b0: c088 47b9 1f12 fdb8 df7a e23a 50a9 ab3b
000000c0: 948c abba a15e aabb 4f23 fbb7 cf2c 9abb
000000d0: 0000 0000 1356 f1b8 e8c5 9bbb 48b7 44bc
000000e0: 0008 efbc e115 1d3b 3c88 36b9 4b5b a737
000000f0: 0137 df39 8a08 413d 0000 0000 7b44 80ba

nonlinear_map.weight f4 [32, 64, 5, 5]
-0.0050165076 0.0047620484 0.003520996 0.0021670582 -0.0035442545 -0.0030103729 0.01258192 0.018413242
0.008131086 -0.0073770676 -0.0023638622 0.014228588 0.01868062 0.009409586 -0.009707199 -0.0043947985
0.0074841054 0.008025232 -8.054509e-05 -0.01336301 -0.010804897 -0.006794073 -0.005574894 -0.0103056915
-0.012111785 -0.00019538529 -0.0008159761 -0.0010614315 -0.0010147593 -0.0018799945 -0.0047908193 -0.0003436968
0.0010731757 0.0029708126 0.00022814215 -0.008664555 -0.001071559 0.0073623373 0.0085267825 0.0051173717
-0.007392028 -0.0013204754 0.0051085944 0.01044403 0.003785003 -0.0085034985 -0.0031085843 0.0029166257
0.0030279385 0.0015356465 0.0030072732 0.0022593476 0.0023342178 0.0016650556 0.0021835056 0.0027582252
0.0032545205 0.0029804264 0.0015038741 0.0009856552 0.0014082661 0.0023703342 0.001207675 -0.0006734247
0.0011403618 0.0003794377 0.0017091774 0.00033699998 0.0018185045 0.0016669453 8.635217e-06 0.0010719313
0.001995277 0.0033377775 0.0035857 0.015529168 0.013271998 0.009306998 0.0056365062 0.007428538
0.010655731 -0.0017198243 -0.002488021 -0.004839544 -0.00026782983 0.0069037867 -0.008949736 -0.0070871715
-0.0015550263 0.0017756613 0.0087283775 -0.005047875 -0.0067292606 0.0026328887 0.0058102254 0.016021073
0.0066947634 0.0076774033 0.01376403 0.016465949 -0.0007219564 0.00065174204 -9.903489e-05 -1.0521836e-05
-0.0019349952 0.00203115 -0.00084218866 -0.0008211198 -0.00048108475 -7.16393e-05 -0.00035717554 0.0011948533
-0.0013710709 0.0006363019 -0.000420261 -0.00070815976 -0.000690148 -0.0004211536 -0.00068010995 0.00010053739
0.0009092061 0.00183146 0.0001990514 -0.00060200837 0.0019238609 -0.00014911318 -0.0020669177 -0.008250736
-0.008194481 -0.003610961 0.000116171876 0.008311392 0.010522635 0.0005105899 -0.011153555 -0.0021564648
0.009427042 0.022665888 0.019147705 -0.009363962 -0.0023344187 0.0013719208 0.014387025 0.018726572
-0.0015990188 -0.0038508496 -0.008553851 -0.0059294305 0.002885673 -0.00019614756 -0.0065440293 0.0016411518
0.0013876901 -0.0022852547 -0.0074401875 -0.001128939 0.012068948 0.016031504 0.007296006 -0.0059043528
0.0007553081 0.016055547 0.023255765 0.013825465 -0.003775505 -0.003600455 0.010390508 0.014489083
0.008386178 -0.004921547 -0.008616454 -0.002111474 -0.0014408628 -0.0032952959 -0.00947046 0.0021766429
-0.0028286169 -0.004025217 -0.0040636244 0.0034725352 0.0026578293 0.0047136573 0.007127473 0.005330936
0.0046187453 -0.0032941299 -0.0020161981 0.009576878 0.011714486 0.00049410504 0.0047311494 -0.0067148763
0.0029853436 0.014940225 0.012400427 0.01747721 0.00083386706 -0.0010851905 0.014067499 0.02516481
0.0041316547 -0.003148965 -0.00370895 -0.0009082659 0.0048776004 0.0031274534 -0.009205584 -0.008609394
-0.004302916 0.0020915933 0.00060277875 -0.0054403637 -0.005797999 -6.381752e-05 0.0015780354 0.0029414704
0.00025635655 -0.0013200161 0.0017329819 0.003032896 0.0074561047 0.006225469 0.0026409803 0.0018722343
0.0017967117 0.0028826282 0.005772382 0.00625559 0.0037228353 -0.0007427452 0.0019048537 0.005766141
0.00647605 0.0030836228 0.00092014455 0.0012609805 0.002659507 0.0038226284 0.0039602164 0.0020437813
-0.0007353582 -0.0020818876 0.0024796228 0.0030444101 0.0029272884 -0.004002526 -0.0024726042 -0.0034363847
-0.0010213976 0.0014497689 7.7732424e-05 -0.0005199571 -0.0002346949 -1.581341e-06 -4.748478e-05 0.0010138365
00000000: 8461 a4bb f50a 9c3b 83c0 663b 3405 0e3b
00000010: b946 68bb ad49 45bb 6624 4e3c 5ed7 963c
00000020: 3f38 053c 54bb f1bb 07eb 1abb 061f 693c
00000030: 1908 993c aa2a 1a3c f20a 1fbc 3e02 90bb
00000040: 3a3d f53b 437c 033c 51ea a8b8 87f0 5abc
00000050: 0607 31bc d1a0 debb 9aad b6bb 34d9 28bc
00000060: 8270 46bc 57e0 4cb9 3be7 55ba bb1f 8bba
00000070: ac01 85ba 266a f6ba 4efc 9cbb 3432 b4b9
00000080: cda9 8c3a f7b1 423b 7139 6f39 c7f5 0dbc
00000090: 8e73 8cba c33f f13b ebb3 0b3c a0af a73b
000000a0: d338 f2bb cd13 adba ff65 a73b 701d 2b3c
000000b0: d00d 783b 4252 0bbc 64b9 4bbb dc24 3f3b
000000c0: 6170 463b bf47 c93a ac15 453b 9011 143b
000000d0: adf9 183b ff3d da3a 2519 0f3b 57c3 343b
000000e0: cb49 553b 4253 433b a41d c53a 1a31 813a
000000f0: 9295 b83a 9c57 1b3b d94a 9e3a c488 30ba
00000100: 3178 953a 44ef c639 7a06 e03a 5faf b039
00000110: e35a ee3a 677d da3a f9df 1037 0c80 8c3a
00000120: 31c3 023b 9dbe 5a3b 10fe 6a3b 0d6e 7e3c
00000130: cb72 593c 617c 183c 71b2 b83b 186b f33b
00000140: 6095 2e3c ba6b e1ba 110e 23bb 0a95 9ebb
00000150: 836b 8cb9 2939 e23b eaa1 12bc 813b e8bb
00000160: 06d2 cbba 4ebd e83a 7801 0f3c a568 a5bb
00000170: 2181 dcbb 8b8c 2c3b b463 be3b a03e 833c
00000180: bf5f db3b ba92 fb3b 8782 613c 99e3 863c
00000190: ad41 3dba abd9 2a3a f4b0 cfb8 f186 30b7
000001a0: aa9f fdba 0b1d 053b 53c6 5cba 6b40 57ba
000001b0: 1a3a fcb9 0e3d 96b8 4a43 bbb9 a09c 9c3a
000001c0: 81b5 b3ba 7fcd 263a 7a56 dcb9 cca3 39ba
000001d0: 0ceb 34ba 48ce dcb9 6849 32ba 9ad7 d238
000001e0: ca57 6e3a 9a0d f03a 74b8 5039 19d0 1dba
000001f0: 0f2a fc3a 445b 1cb9 2075 07bb 182e 07bc
00000200: 2542 06bc dfa5 6cbb 4da1 f338 812c 083c
00000210: 2167 2c3c 1cd9 053a 66bd 36bc 7a53 0dbb
00000220: e173 1a3c d0ad b93c a6db 9c3c 4e6b 19bc
00000230: 0cfd 18bb 06d2 b33a 8eb7 6b3c 7868 993c
00000240: 2b96 d1ba 895e 7cbb 7425 0cbc ab4b c2bb
00000250: 8f1d 3d3b f6ac 4db9 4c6f d6bb eb1b d73a
00000260: 27e3 b53a 36c4 15bb d1cc f3bb e8f8 93ba
00000270: d6bc 453c 8054 833c 5613 ef3b 4d79 c1bb
00000280: deff 453a ec86 833c e082 be3c 3484 623c
00000290: 776e 77bb 9cf5 6bbb f33c 2a3c 9e63 6d3c
000002a0: 2e66 093c ee44 a1bb 072c 0dbc a860 0abb
000002b0: 55db bcba e4f5 57bb fd29 1bbc 02a6 0e3b
000002c0: 5160 39bb f8e5 83bb 2728 85bb 7993 633b
000002d0: fa2e 2e3b 0675 9a3b 948d e93b 22af ae3b
000002e0: d858 973b 54e2 57bb 3122 04bb 56e8 1c3c
000002f0: 1eee 3f3c d486 013a c207 9b3b 7708 dcbb
00000300: c1a5 433b d8c7 743c 292b 4b3c 5e2c 8f3c
00000310: df97 5a3a f33c 8eba 5e7b 663c 6e26 ce3c
00000320: d562 873b de5e 4ebb db11 73bb b118 6eba
00000330: 47d4 9f3b f6f5 4c3b 05d3 16bc 6a0e 0dbc
00000340: 7aff 8cbb 1d13 093b cc03 1e3a 1445 b2bb
00000350: 24fd bdbb c5d5 85b8 15d6 ce3a afc5 403b
00000360: 9867 8639 6404 adba 3925 e33a 8dc3 463b
00000370: 5752 f43b 05ff cb3b 4c14 2d3b c265 f53a
00000380: a47f eb3a 7aea 3c3b 4026 bd3b b1fb cc3b
00000390: d0fa 733b c9b4 42ba 49ac f93a e6f1 bc3b
000003a0: 0b35 d43b 9b16 4a3b db35 713a 7c47 a53a
000003b0: 204b 2e3b 1085 7a3b b4c4 813b f6f0 053b
000003c0: 0ec5 40ba 4770 08bb 2b81 223b ba84 473b
000003d0: c0d7 3f3b 9f27 83bb 6a0b 22bb f834 61bb
000003e0: 6be0 85ba 2c06 be3a 4704 a338 bb4d 08ba
000003f0: 6f18 76b9 773e d4b5 652a 47b8 b5e2 843a

nonlinear_map.bias f4 [32]
-0.0056617577 -0.00012008678 -0.000120109 -0.0020129813 -0.00014493742 -9.58577e-05 -0.00042592033 -0.00018487737
0.0030943542 -0.00012008228 -0.002623783 0.0 -0.003740406 -0.00013977531 -0.00012010698 -0.0001233648
-0.0042050113 -0.00066528725 -0.007657429 -0.004229841 0.002003156 -0.00014020481 -0.0005411461 -0.00019061733
-0.0001201045 -0.0032580416 0.0028493751 0.0025893103 0.0010033706 -7.059332e-05 0.032416657 -0.0035302988
00000000: 4486 b9bb 19d7 fbb8 07e3 fbb8 39ec 03bb
00000010: 58fa 17b9 3607 c9b8 0f4e dfb9 a4db 41b9
00000020: a6ca 4a3b afd4 fbb8 c6f3 2bbb 0000 0000
00000030: 9921 75bb a690 12b9 f2e1 fbb8 7d5b 01b9
00000040: 31ca 89bb ac66 2eba 2ceb fabb 7a9a 8abb
00000050: 6247 033b f103 13b9 b3db 0dba 73e0 47b9
00000060: 9de0 fbb8 de84 55bb 95bc 3a3b 6bb1 293b
00000070: 8883 833a 800b 94b8 54c7 043d 965c 67bb

recon.weight f4 [3, 32, 5, 5]
0.0014857912 -0.002113452 -0.0014889098 0.0002529742 0.0050353818 0.0016712036 0.0016302845 -0.0016718883
-0.0034039437 0.0015397528 0.0003716475 0.0019170973 -0.00085891044 -0.00446404 -0.0016158257 0.00076892565
0.00034293203 -0.0005974537 -0.0019047642 -0.00013391416 0.0021300265 7.0482216e-05 -0.0016608856 -0.000679649
-0.0012348031 -0.0011296464 0.00079487066 0.00034377957 0.0017183821 -0.00019125221 0.00054460095 0.0013538486
-0.0012861021 0.0016481768 0.0010273235 -0.0018837914 6.375035e-05 0.002748875 7.753706e-06 -0.0010224843
-0.00050667004 0.0019240611 -0.0018299656 0.0003297275 -0.0013099598 -0.00050243636 -1.8960619e-06 0.00011720829
-0.00030007135 0.00021108364 -0.00077891286 -0.0013076008 0.00093604287 0.00012441969 0.0016646441 0.0007185249
0.0007399657 -0.0016928884 0.0010234138 0.00060728326 0.002439379 0.0011004469 -0.0012740765 0.00019752055
-0.0004365388 -0.00038988778 0.0003480791 0.001611728 -0.0013844318 -0.0005828218 -0.0001520129 -0.00036381016
0.0028078468 -0.0002873177 -0.0015432046 -0.0037837597 -0.00922442 -0.0034324022 0.0029402839 -0.0017637339
-0.0008851859 -0.003083874 0.0049271714 0.011236174 0.0054070274 0.004363458 0.014463331 0.014262861
0.009314995 0.0044394415 0.00038359658 0.0171826 0.01599056 0.0024595268 -0.0039366777 -0.007855092
0.0009768731 0.0022686662 -0.0027893556 -0.0029815966 -0.00060245726 0.00028615238 0.0007734115 -0.0002774608
0.00034504544 -0.00034137862 0.00020496399 0.0005226638 7.647698e-05 -0.0012487391 -0.00040738803 -0.00093810644
-0.00045670997 0.0006661177 4.85265e-05 -0.0014266726 -1.0388156e-05 0.0008834155 0.00021730123 -0.00047178168
-0.0010187585 0.00010386632 -0.0002446932 -0.0018145802 -0.00029740084 0.00010397138 0.00040158562 -0.00027839938
0.00021652333 0.00033182223 0.001065404 -0.00039834157 0.0005819221 -0.0009893564 -0.0006169487 0.00015996146
-0.0020118698 -0.0012854756 0.00042018705 -0.00014956594 0.002470244 0.0002773889 2.6696189e-05 0.00045077014
-6.109678e-05 0.00087325677 -0.00085863366 0.0014193779 0.0025888032 -0.0007121293 0.0014831068 0.001992716
0.001283295 0.0013409994 -0.0017565127 -0.0005174853 -0.0007849926 -0.00037824767 -3.0913616e-05 0.0021164948
-0.0014939718 0.0007124638 -0.00079365907 0.00072560675 0.0003583372 -0.0008433199 0.0009332978 0.0006795432
-1.2572127e-05 -0.00039208643 0.0009234497 0.0001209189 -0.000552492 0.0017045292 0.0009488824 -0.0003644332
-0.00052199606 0.0013134674 0.00032194174 0.0020124102 -0.0003715979 0.0014388808 -0.00018260155 -0.00017342776
-0.0016100983 -0.00038439262 0.0015581463 -0.0011185323 0.0010107625 -0.00047106642 -0.0004965952 0.00076461775
5.2253563e-05 -0.0002294367 -0.0007395997 0.0013763246 0.000374842 0.0007234636 -0.0014958321 0.00018151346
0.013821443 -0.038951073 -0.029448763 0.0028751804 -0.029479079 0.0117045995 -0.02560403 -0.009658625
0.048989657 0.019528933 0.00978449 0.05670864 0.064680405 0.035732288 0.0050222133 -0.029703809
0.06738086 0.07532875 -0.048072305 -0.06618145 -0.06688307 -0.0083411755 0.01571038 -0.06271597
-0.05016501 -0.0016443225 0.00074761646 -0.001527232 0.0015220712 0.00065588433 -0.0004289514 0.00025883768
0.00057637173 -0.0009310727 3.1649397e-05 -0.00059547054 -0.0010948089 -0.0010529438 -0.0013822456 -0.0007482075
-0.002547231 0.002375 -0.001876968 0.0019298287 -0.00014413668 0.000679339 0.0011041044 -0.0013074848
-0.00075063185 -3.5507284e-05 -0.0029543475 -0.00087112316 0.0001676099 0.0011478837 0.002010173 -0.0014678342
00000000: e1be c23a d781 0abb 8627 c3ba 9fa1 8439
00000010: d8ff a43b 4a0c db3a 45af d53a 4323 dbba
00000020: b314 5fbb 88d1 c93a afd9 c239 1c47 fb3a
00000030: 8128 61ba 1547 92bb 1dca d3ba ba91 493a
00000040: 8fcb b339 709e 1cba 48a9 f9ba 4f6b 0cb9
00000050: ea97 0b3b dacf 9338 13b2 d9ba 792a 32ba
00000060: 1ed9 a1ba a510 94ba de5e 503a 503d b439
00000070: 563b e13a e08a 48b9 8dc3 0e3a 9f73 b13a
00000080: 6d92 a8ba a307 d83a 42a7 863a 8de9 f6ba
00000090: b5b1 8538 7826 343b ea15 0237 e104 86ba
000000a0: 0dd2 04ba c730 fc3a 75db efba 47df ac39
000000b0: f5b2 abba efb5 03ba 317c feb5 b9cd f538
000000c0: e552 9db9 5556 5d39 f52f 4cba cd63 abba
000000d0: c660 753a a876 0239 3030 da3a 645b 3c3a
000000e0: 42fa 413a e9e3 ddba 1224 863a 1732 1f3a
000000f0: fddd 1f3b df3c 903a eafe a6ba 851d 4f39
00000100: 3fdf e4b9 da69 ccb9 637e b639 9e40 d33a
00000110: d375 b5ba 82c8 18ba a765 1fb9 c6bd beb9
00000120: da03 383b 21a3 96b9 5b45 caba f4f8 77bb
00000130: 0622 17bc 27f2 60bb c7b1 403b 172d e7ba
00000140: d20b 68ba d21a 4abb 1c74 a13b ee17 383c
00000150: 6f2d b13b 57fb 8e3b 9bf7 6c3c c6ae 693c
00000160: ec9d 183c bc78 913b 761d c939 86c2 8c3c
00000170: a3fe 823c 0330 213b 3fff 80bb a5b2 00bc
00000180: 6c0a 803a e7ad 143b 9fcd 36bb e466 43bb
00000190: 39ee 1dba b906 9639 c4be 4a3a 2878 91b9
000001a0: 37e7 b439 10fb b2b9 9aeb 5639 6003 093a
000001b0: 4462 a038 bbac a3ba b296 d5b9 42eb 75ba
000001c0: 9372 efb9 679e 2e3a ef88 4b38 30ff baba
000001d0: ca48 2eb7 0395 673a 5bdb 6339 7759 f7b9
000001e0: dd87 85ba ced2 d938 2a4a 80b9 35d7 edba
000001f0: 77ec 9bb9 360b da38 e98b d239 22f6 91b9
00000200: 8a0a 6339 6df8 ad39 07a5 8b3a 80d8 d0b9
00000210: 228c 183a 4bad 81ba baba 21ba 54bb 2739
00000220: 93d9 03bb 677d a8ba 8d4c dc39 cdd4 1cb9
00000230: d1e3 213b 826e 9139 a1f1 df37 5855 ec39
00000240: 1621 80b8 45eb 643a ee15 61ba 6b0a ba3a
00000250: e9a8 293b 30ae 3aba ce64 c23a 3a98 023b
00000260: 3c34 a83a 79c4 af3a c93a e6ba daa7 07ba
00000270: f6c7 4dba 8b4f c6b9 3ea9 01b8 e4b4 0a3b
00000280: 60d1 c3ba a3c4 3a3a 8f0d 50ba a536 3e3a
00000290: 34df bb39 3e12 5dba 8ea8 743a 5f23 323a
000002a0: e0ec 52b7 f390 cdb9 a913 723a d795 fd38
000002b0: 1cd5 10ba 826a df3a 6cbe 783a 6511 bfb9
000002c0: 90d6 08ba a728 ac3a 4aca a839 a4e2 033b
000002d0: 07d3 c2b9 d498 bc3a bb78 3fb9 29da 35b9
000002e0: ef09 d3ba 4e88 c9b9 b73a cc3a b79b 92ba
000002f0: 907b 843a 77f9 f6b9 f12d 02ba a170 483a
00000300: d62a 5b38 f294 70b9 b2e1 41ba ca65 b43a
00000310: 7186 c439 d2a6 3d3a cc0f c4ba a654 3e39
00000320: 5573 623c 298b 1fbd 883e f1bc 866d 3c3b
00000330: 1c7e f1bc a6c4 3f3c 8bbf d1bc 363f 1ebc
00000340: 61a9 483d 24fb 9f3c 204f 203c 5247 683d
00000350: 2977 843d 055c 123d 6191 a43b 6755 f3bc
00000360: fafe 893d f645 9a3d 77e7 44bd 248a 87bd
00000370: fef9 88bd 6da9 08bc 0eb3 803c 3b71 80bd
00000380: d379 4dbd 4f86 d7ba b1fb 433a 672d c8ba
00000390: 3c80 c73a a7ef 2b3a e2e4 e0b9 9bb4 8739
000003a0: a717 173a 3b13 74ba 48bf 0438 5a19 1cba
000003b0: b17f 8fba ee02 8aba 772c b5ba 5b23 44ba
000003c0: 72ef 26bb e3a5 1b3b 9804 f6ba 4ef2 fc3a
000003d0: 6523 17b9 ab15 323a 99b7 903a e95f abba
000003e0: 0dc6 44ba a8ed 14b8 ba9d 41bb 165c 64ba
000003f0: 71c0 2f39 9674 963a 1bbd 033b 5864 c0ba

recon.bias f4 [3]
-0.008134829 0.009965954 0.0051375763
00000000: f247 05bc 3e48 233c 1d59 a83b
